D/pth/D_cnn.pth (torch, 508317 bytes, 75 tensors)

weight f4 [8, 1, 5]
00000000: dfe9 a53d 14ba bd3e dab4 fc3d 6084 c6be
00000010: 8059 cc3d 53d3 50be e3e0 aa3d 25dd c43e
00000020: 35a7 403e ddbb 7ebe 1fd4 8532 39f4 5fb2
00000030: 0e0f e933 afe7 5432 b0de a333 3f0d a63d
00000040: 1b4b 9bbc 9db5 aebe 81d7 02be 4b08 3ebe
00000050: bbbb 0100 1e01 0000 573b 0000 2301 0000
00000060: cc8f 4b1c 5531 bc3e c893 c2be b32e bfbd
00000070: 2d16 0f3e dd43 6d3e 2a3a 6eb1 1eff c1b4
00000080: 07c6 36b5 0804 5bb4 138e 7ab4 27ea d63e
00000090: fb22 0dbe d6ca 69be 71c9 f6bc 0722 23be
0.08101248 0.3705603 0.12339182 -0.3877287 0.09978008 -0.20393114 0.08343675 0.3844997
0.18813784 -0.24876352 1.55797e-08 -1.3035838e-08 1.08526464e-07 1.2392703e-08 7.6307856e-08 0.08107995
-0.018956712 -0.34122935 -0.1277752 -0.18557851 1.5918e-40 4.01e-43 2.1287e-41 4.08e-43
6.735292e-22 0.36756387 -0.38003373 -0.09335079 0.13973303 0.23170419 -3.466662e-09 -3.6134674e-07
-6.808845e-07 -2.0397431e-07 -2.333475e-07 0.4197552 -0.13782875 -0.22831282 -0.030125352 -0.15930949

bias f4 [8]
00000000: 350e d737 3ab5 e5ba 88ea 0a37 5055 7ab9
00000010: 7f2b 3738 a82e 0db9 5dec edb7 517f 223a
2.5636613e-05 -0.0017525323 8.280047e-06 -0.0002387364 4.367111e-05 -0.00013464189 -2.8362667e-05 0.0006198781

weight f4 [8]
00000000: d2ba 7b3f d951 6d3f 87ea 8233 8d1d 4c3f
00000010: 0406 1010 cc3d 743f 6fc9 60b4 f5e0 5c3f
0.9833194 0.92703015 6.096257e-08 0.7973259 2.8403627e-29 0.95406795 -2.0934907e-07 0.8628076

bias f4 [8]
00000000: 1213 b23a be76 063b 5639 99b3 7c92 353b
00000010: 96b9 d99c 2057 4f3b 64d6 d533 0c44 2d3b
0.0013586006 0.0020517553 -7.135047e-08 0.002770572 -1.4407828e-21 0.0031637624 9.957583e-08 0.0026438264

running_mean f4 [8]
00000000: efba d737 45b3 e5ba 80ea 0a37 a681 7ab9
00000010: 772b 3738 ef1a 0db9 54ec edb7 cc7c 223a
2.5717045e-05 -0.001752474 8.28004e-06 -0.00023890156 4.367108e-05 -0.00013456841 -2.836265e-05 0.0006198406

running_var f4 [8]
00000000: 71bb 3e2b d261 4d2b 5450 8e17 9de9 192b
00000010: 0802 8019 5de9 2b2b 6bb8 7519 2a16 242b
6.7761687e-13 7.2966383e-13 9.196813e-25 5.4680723e-13 1.323571e-23 6.107526e-13 1.2703446e-23 5.8295263e-13

weight f4 [8, 8, 5]
00000000: c4a0 21bd 99a9 c4bd ea72 9bbd f9c1 b23b
00000010: 5d40 e4bd 9c97 acbd a3c9 683d c696 063e
00000020: 293f e43d 9bdb 013e f4be b632 b194 6332
00000030: db32 8e32 58f3 8a32 c0f4 9f32 55e1 34bb
00000040: 9936 203d 78db a1bc 8ec6 40bd 24e9 16bd
00000050: 5ea4 cb99 eedb 269a de8e 051b 86e6 389a
00000060: f2d0 021b f886 cb3d 0df6 0abd 006c c9bc
00000070: 26f3 3abe 69aa b93c 4577 1233 95de 3d33
00000080: 822f 3ab4 ffa3 21b4 7dd5 5db4 dc90 1abe
00000090: fe14 8f3d ccd2 24be f492 dcbd 4211 473d
000000a0: df18 393c d38b 173d 9731 1cbe 8b9d 063d
000000b0: a4e5 053d 55d1 90bd 2a2f 3f3d 6cfe 48bb
000000c0: ebf9 b23d 20fc a2bd 7c61 0435 c748 f034
000000d0: d28c ea34 4ee7 fa34 da69 e934 2d0e 9d3d
000000e0: 02d1 2cbd 3299 8fbd 4bf8 04be 1cb1 ba3d
000000f0: 11b7 9c97 aac2 9798 669b 9b99 eda4 1b9a
00000100: 605c be19 156b 92bd 1fd9 37bd 238e 203e
00000110: fea3 3abd f75b 0abe 0675 2234 0d02 3b34
00000120: 8bb0 8935 0ad6 8935 9e7e 8735 c72e e5bd
00000130: bb96 903d 8afe d4bd 4b52 86bd a9e6 f43d
00000140: de0b 4a3d ccd8 12be d69a 263e 3f7e a73d
00000150: f90e 1e3d 6585 b7bd c2f7 69bd 606e 37bc
00000160: 25a5 63bc 35df 79bc 5cea 69b4 71d3 6731
00000170: fdb0 2eb3 5600 3cb3 2086 5ab4 0f4a dd3c
00000180: 7184 7b3d 1834 713d a923 593d 4bf8 55bc
00000190: cfcf 8497 74ea 1e17 8f7a 9217 3f38 0c98
000001a0: 6728 2398 26a9 8abc 7683 1ebd 103c a83d
000001b0: 5a7b 153d c3a1 36bd 9759 17b3 0e15 a234
000001c0: 3140 8b34 bcf9 8734 678d 0735 f115 ddbb
000001d0: 6249 513d 25ca 99bd 0a40 a13d 0c9e 053d
000001e0: 67b8 d03c 1f49 0abe c2dc bdbd c71c 203e
000001f0: e45e 1ebe ecfc 7a3d d96e cebd d4d5 48bd
00000200: a047 22be cc70 883c 873b 7cb3 74b6 a032
00000210: f3b9 9bb1 95f7 4bb1 6b4f 87b3 5030 c9bd
00000220: 2c7f cabc 057f 9f3d 94bb c0bd 138e bb3b
00000230: 19a2 d318 a84d 7197 954c 2f1a 8304 aa19
00000240: 9026 0099 6547 20bb 8d8f 5dbd b82d 46bc
00000250: 7fa9 793d e580 363e 5f3b ea34 8b5a e434
00000260: 7349 e7b4 02ef ecb4 4a6c 02b5 f7bb 71bb
00000270: 32f8 fbbc 810a 343d 9c6b b0bd 7d39 523d
00000280: 6ff6 97bd 6d2c f4bc b257 1e3e cf71 20be
00000290: 02c3 e2bd 3468 00be accd a0bd 38a5 5c3c
000002a0: 762c 0fbe a085 923d 2826 ccb4 491d c4b4
000002b0: 7e9c c8b4 9ed6 bcb4 feb8 c3b4 04ca a0bd
000002c0: d5f3 9b3c d1f4 b23b da9c 053e d5e2 2dbe
000002d0: fadb c119 d6dd e998 b3ba 8f18 850b 1199
000002e0: 3f94 b7a2 6b95 073e 810d 433d 4bcc 083e
000002f0: 1b5c b83d d6e6 5cbd d561 1733 380b 4b33
00000300: cf20 6635 c80d 6635 41e7 6135 8dc6 bb3d
00000310: 5449 f23d cd69 e7bd 7874 c53d 1da4 d1bd
00000320: bdf5 713d 379f 953d 3dd2 c4bc d152 babd
00000330: 9581 e7bd 4817 ab3d da83 013e 4b3b b13d
00000340: 8c5d 25be 3b7c 1fbe 5893 d5b3 7fea d7b3
00000350: 5955 cab3 ce61 d3b3 af39 d1b3 9899 8a3d
00000360: 610b d5bd d6b7 e23c 8ea8 e63d a41b 0ebe
00000370: aa58 0219 7486 101a 4d95 be99 e240 5c19
00000380: c54a 0c9a 8792 60bc be1c 5d3d 06f2 c2bd
00000390: 7649 9b3d 0cee e23d 6e87 fd33 3b85 3634
000003a0: 7860 2cb5 1304 33b5 e57e 33b5 290e 033e
000003b0: d045 d23c 6db5 e9bd 413d 983d f9b6 63bd
000003c0: 85ee 453e c517 b6bd 3ae6 60bd cbbd d03d
000003d0: 712f 12bd 6593 cebd 0783 d23d 3990 fcbd
000003e0: be2f a13d 422f 6ebd 94a8 73b4 9b39 3eb4
000003f0: 4ca3 78b4 b552 cdb3 ca22 26b4 19b8 3d39
-0.03945996 -0.09602661 -0.075902775 0.0054552522 -0.11145089 -0.08427355 0.05683292 0.13143453
0.11144859 0.12681429 2.1274424e-08 1.32469475e-08 1.6554102e-08 1.6175974e-08 1.8621336e-08 -0.0027600129
0.03911457 -0.019757971 -0.047064357 -0.036843434 -2.1056095e-23 -3.4505653e-23 1.1047665e-22 -3.8236524e-23
1.0820862e-22 0.099378526 -0.03392606 -0.024587631 -0.18256816 0.022664266 3.410175e-08 4.420743e-08
-1.7339883e-07 -1.5053955e-07 -2.0659895e-07 -0.15094322 0.06986426 -0.16096038 -0.107702166 0.048600443
0.011297434 0.03699858 -0.15253292 0.03286509 0.032689705 -0.07071177 0.04667584 -0.0030669225
0.08739074 -0.07958245 4.931569e-07 4.4756436e-07 4.3688357e-07 4.6734425e-07 4.347665e-07 0.076687194
-0.042191513 -0.070116416 -0.12985341 0.09115812 -1.0127476e-24 -3.9229146e-24 -1.608939e-23 -3.2186475e-23
1.968285e-23 -0.071493305 -0.044884797 0.15679221 -0.04556655 -0.13511644 1.5129999e-07 1.7416478e-07
1.0258676e-06 1.0269589e-06 1.0095134e-06 -0.11190563 0.070599996 -0.10400112 -0.06558665 0.119580574
0.049327724 -0.14340514 0.16270003 0.081783764 0.038588498 -0.0896099 -0.057121046 -0.011195749
-0.013894354 -0.015250971 -2.1785075e-07 3.3735115e-09 -4.0673502e-08 -4.3772467e-08 -2.0351627e-07 0.027012853
0.061405603 0.05888757 0.053012524 -0.013059686 -8.582758e-25 5.1348475e-25 9.465967e-25 -1.8122973e-24
-2.1087654e-24 -0.01692636 -0.03869959 0.08214581 0.03649459 -0.04458786 -3.523891e-08 3.019017e-07
2.5937473e-07 2.5327415e-07 5.0497187e-07 -0.0067470004 0.051095374 -0.07509259 0.078735426 0.03262143
0.025478555 -0.13504456 -0.09270622 0.15635978 -0.15465885 0.06127636 -0.10079736 -0.049032047
-0.15847635 0.016655348 -5.8727462e-08 1.8709422e-08 -4.5322337e-09 -2.9681122e-09 -6.3008734e-08 -0.09823668
-0.024718843 0.07787899 -0.09410778 0.0057237237 5.47059e-24 -7.7969316e-25 3.6251014e-23 1.757941e-23
-6.6252325e-24 -0.0024456617 -0.05409198 -0.012095861 0.06095266 0.17822607 4.3629095e-07 4.2534188e-07
-4.3080544e-07 -4.4132327e-07 -4.8586355e-07 -0.0036885717 -0.030757997 0.04395533 -0.08614275 0.051324356
-0.0742005 -0.02980634 0.1546314 -0.15668415 -0.11072351 -0.1253975 -0.07851729 0.013467126
-0.13981804 0.07154393 -3.8025723e-07 -3.6529153e-07 -3.7366766e-07 -3.5173883e-07 -3.645618e-07 -0.078510314
0.019037167 0.0054613133 0.13048115 -0.16981061 2.004458e-23 -6.0453085e-24 3.715315e-24 -7.498651e-24
-4.975921e-18 0.13240592 0.0476203 0.13359182 0.09001943 -0.05393108 3.5246405e-08 4.7274824e-08
8.572942e-07 8.570173e-07 8.415555e-07 0.0916873 0.118303925 -0.11299477 0.09641355 -0.1023638
0.059072245 0.073057584 -0.02402603 -0.09097827 -0.11304013 0.0835405 0.12647954 0.08653887
-0.16148967 -0.15574734 -9.945387e-08 -1.0054372e-07 -9.421883e-08 -9.843244e-08 -9.7428135e-08 0.06767577
-0.10402561 0.02767555 0.11262618 -0.13877732 6.738748e-24 2.9887112e-23 -1.9705842e-23 1.13868364e-23
-2.901172e-23 -0.01370681 0.05398249 -0.095188186 0.07582371 0.1108056 1.1805865e-07 1.699854e-07
-6.4215374e-07 -6.6688625e-07 -6.686735e-07 0.1279837 0.025668055 -0.11411557 0.07433558 -0.05559442
0.19329269 -0.088912524 -0.05490706 0.1019245 -0.035689775 -0.10086707 0.10278898 -0.12332196
0.07870434 -0.058150537 -2.2692467e-07 -1.7716086e-07 -2.3156207e-07 -9.561101e-08 -1.5472611e-07 0.00018093026

bias f4 [8]
00000000: a6ce 1537 8872 6836 c82c e934 7bc1 3bb7
00000010: 70c9 6bb4 54c2 2c37 b297 c2b6 46bd 2136
8.929206e-06 3.463736e-06 4.3432215e-07 -1.1191117e-05 -2.1959363e-07 1.0297244e-05 -5.79931e-06 2.4101041e-06

weight f4 [8]
00000000: 5ee7 6c3f bd88 703f acff 383f b41c 6b3f
00000010: efb1 793f 51fd 653f 892b 6e3f c0bd 673f
0.9254054 0.93958646 0.72265124 0.9184067 0.9753713 0.89839655 0.9303518 0.9052391

bias f4 [8]
00000000: 6730 f6bb 5c48 12bc 6431 acbc 1ae5 49bc
00000010: e9e6 94bc 7ee6 7b39 e019 10bc 95fb bfbc
-0.007513094 -0.008928385 -0.021019645 -0.0123226885 -0.018176513 0.0002402309 -0.008795232 -0.023435393

running_mean f4 [8]
00000000: b786 8dba 826f 80ba d603 2e3a 474e 2bba
00000010: 61c6 8939 f890 a339 e569 553a 58b8 8cb9
-0.0010797594 -0.0009798857 0.0006638145 -0.00065347966 0.0002627848 0.00031197793 0.00081410847 -0.00026840228

running_var f4 [8]
00000000: b71c d432 e6e2 9132 a27c 1231 4408 3132
00000010: 6c9c a232 fdb0 a732 faa3 0133 d1fa f832
2.4693106e-08 1.6983403e-08 2.1316642e-09 1.0304635e-08 1.8930415e-08 1.9521844e-08 3.018429e-08 2.8985058e-08

weight f4 [16, 8, 5]
00000000: 516d a13d 14fa 8b3b 29a4 d0bc aa90 d7bd
00000010: 9be0 96bd 1d4d 8a3d d045 d6bc d57f 10be
00000020: e8a0 fe3c ed2a dc3d 23a3 ef3c ce00 e83c
00000030: 2fad 47bd f50e 1bbd 7b0b c2bd 5612 35bd
00000040: b885 943d e405 a7bd 066d 213e 161c 04be
00000050: a1c7 91bd 6ee4 a7bd 57a8 bdbc baf0 983d
00000060: 34bc 3c3e 5299 c73c 679d 66bc 595e 77bc
00000070: 012f 5d3d 5b4c 433d 7d74 82bd f7a9 8fbc
00000080: 962e 053d 0370 d5bd f8a0 7b3d 46f2 fb3d
00000090: 5bb1 fabc 4d24 f6bc 0950 a73a bfc6 eb3a
000000a0: ec4f 17be e5fb dc3d 775b cebd 30e0 61bd
000000b0: 6030 e7bd 8d6b c83d 303f 55bd e6b8 00bd
000000c0: 3d7f b1bc 1323 94bd fd69 87bc 46a7 2dbd
000000d0: d881 d1bb 7eb0 a9bc 6246 2bbd f7c2 86bc
000000e0: 91e9 efbc 875c 693d 5d5a 823d 6592 e43d
000000f0: 6717 f63d 28d6 9fbd 52e4 063e 2db4 fcbd
00000100: 1a4e f43d e15f d7bd 7cae 953d 2472 83bd
00000110: 46fc c8bd 6203 babc 5453 6cbd b0c8 c93d
00000120: e238 a2bd e02c b43d 38f2 5bbd 669f e7bd
00000130: cddf 3abd 2d99 923d dcf5 0ebe ff8c cf3d
00000140: d074 13be f275 da3d ff54 a23c 1dd2 98bd
00000150: 8fe2 3c3b 8d70 99bd ed82 333d 49db 153c
00000160: 2ec2 1abd 815d 17bd 437e c53c 35c9 883b
00000170: 86fe c0bb 321c 9fba 1a58 b8bb c3af fcbd
00000180: ae2b 773c c02e 7b3d f431 c73d bca4 0f3e
00000190: 4548 fabd ae78 c3bb ecad 0cbd 46fd 6bbb
000001a0: 87a0 bebd 025b 763d faf4 ba3c c038 26be
000001b0: 445f 34bd 16bb 8ebb 7930 07be 97f1 a1bd
000001c0: 316e d3bd dca1 86bd d71c 303c 62a5 7fbd
000001d0: db20 e53c d6d7 3ebd 3820 083b f145 babd
000001e0: f241 04be 0ece d03d f0cc 4abd e2ff e83d
000001f0: 6195 bcbd 0846 a73d 0eb3 3ebd 4b23 63bd
00000200: c7ac 193e f7b0 d2bd ec39 9dbc 8b7d 863c
00000210: 6160 b1bb caaf 253d 6b9b d63c 3bcc 133c
00000220: 818c e93d ad9e e53d ae68 08bd a828 38bd
00000230: a102 d63d 8bf5 dbbb 1673 34bc ade6 963d
00000240: a4b5 28bd 2a6f 16bb 3fdc 14bc b9a8 f73d
00000250: cdce 333d 6841 fe3c 9595 b4bd dcfd 833b
00000260: e7c8 10be b07e 333d a4b1 01be 2957 c9bc
00000270: 688e ed3c c6a6 c43d bccf bebd 1022 273b
00000280: 408f a1bb b3dd 0c3d 7e14 823d 70c2 bbbd
00000290: 2543 6f3d 0fe6 b6bd 8cf3 9dbd 0e18 c13d
000002a0: 464f 7fbd 252c f63c 2b00 753c dc4b 743c
000002b0: a880 e3bc 3d74 6abc 6caf b23c 8db5 04bc
000002c0: 248f 043e 05c7 fe3d 6d37 edbd 462a 61bd
000002d0: ada3 02be e079 813d d43a ddbc 5419 b4bc
000002e0: c6d1 753d a921 653c 6a24 04bd 6495 84bd
000002f0: 2bca 8c3d 133d 63bd 2ef8 1cbe 4709 a33d
00000300: 5406 3c3d 3718 b43d d5c5 803d a510 babd
00000310: 4314 e73d 0d63 6abd e4aa a83d 6273 ddbd
00000320: a0c0 08be d465 95b9 f5f5 5c3d fcc9 ffbc
00000330: b937 a23d 5006 b9bc a2d4 7ebd 3108 7539
00000340: d150 443b 90ad 483d ec7b 3abb 5ced 57bb
00000350: 8d69 a13b 5767 91bc bd47 fabc 8db9 16bd
00000360: 6620 e2bc 4d8e 423c 81f6 603d 4553 fd3b
00000370: bc88 93bc c6f4 bb3d 8c9f 2c3d 0a2d cd3d
00000380: 07a5 9c3d 1867 ce3c bf51 c3bd 5229 99bb
00000390: 4cb9 9cbd 35ec c4bd 0787 e8bd 0315 cfbc
000003a0: 2a88 8ebd aebd 5e3d d71b 8c3d a99f bbbd
000003b0: b2ed abbc cda0 cfbc d1a1 903d 1afc 8d3d
000003c0: c1dc bf3a 8154 523d a2fa f13d 3fff f7bd
000003d0: c02a bbbd 1f4d 83bd 4393 fa3d 8757 053c
000003e0: f111 77bd 9591 0fbd 4308 003d fc14 9bbb
000003f0: 2d8d 003d 975e 6dbc 583a 7bbc 5189 0e3e
0.078821786 0.004271755 -0.025468903 -0.10525639 -0.07367059 0.067529894 -0.026156336 -0.14111264
0.031082585 0.10750375 0.029252594 0.028320696 -0.048749145 -0.03785606 -0.09474846 -0.04420694
0.07252067 -0.081554204 0.15764245 -0.12901339 -0.07118154 -0.081978664 -0.02315156 0.0746779
0.18431169 0.024365101 -0.014075614 -0.015098178 0.053999905 0.04768024 -0.063698746 -0.0175371
0.03251513 -0.10421755 0.06143281 0.12302069 -0.030602148 -0.030046606 0.0012764941 0.0017988308
-0.14776582 0.107902326 -0.10076039 -0.055145442 -0.11288524 0.09786139 -0.052062213 -0.031426333
-0.021667117 -0.072332524 -0.016530031 -0.042395853 -0.0063936524 -0.02071404 -0.04181517 -0.016450388
-0.029286178 0.056973007 0.06364892 0.11160735 0.120161824 -0.07804519 0.13173035 -0.12339053
0.11928959 -0.10516334 0.07308671 -0.06418255 -0.09813742 -0.022706691 -0.057696655 0.09852731
-0.07921006 0.08797622 -0.053697795 -0.113097 -0.04562359 0.07158122 -0.13960975 0.10134315
-0.14400029 0.106670275 0.01981592 -0.07461951 0.0028821563 -0.074921705 0.043826032 0.00914652
-0.03778284 -0.036954407 0.024108058 0.0041743764 -0.0058897166 -0.001213914 -0.005625737 -0.123382114
0.015086098 0.06132388 0.09726325 0.14027685 -0.122208156 -0.005965314 -0.034345552 -0.0036009117
-0.09307962 0.060145386 0.022821892 -0.16232586 -0.044036165 -0.0043557985 -0.13202085 -0.07907408
-0.10323752 -0.06573841 0.010749063 -0.06241358 0.027969768 -0.046592556 0.0020771157 -0.090953715
-0.12915781 0.10195552 -0.04951185 0.11376931 -0.09208179 0.08167654 -0.04655748 -0.05545358
0.15007316 -0.102876596 -0.019192658 0.016417285 -0.0054131006 0.04045085 0.026197156 0.00902086
0.11403752 0.11211906 -0.033302955 -0.044960648 0.1044972 -0.0067126206 -0.011013767 0.07368217
-0.04118885 -0.0022954443 -0.009085714 0.12092728 0.043898392 0.031037048 -0.08817593 0.004028065
-0.14139138 0.04382199 -0.12665421 -0.024577694 0.028998569 0.09602122 -0.09316966 0.002550248
-0.004930407 0.034391116 0.06351565 -0.091679454 0.058413643 -0.08930599 -0.077124685 0.09428416
-0.06233146 0.030050347 0.014953653 0.014910664 -0.027771309 -0.01430994 0.021812163 -0.008099926
0.12945229 0.12440304 -0.11582837 -0.054971956 -0.1275775 0.06322074 -0.02700559 -0.021984734
0.06001451 0.013985076 -0.03226129 -0.064738065 0.06874498 -0.055478167 -0.15329048 0.07960754
0.045904472 0.08793681 0.062877335 -0.09085206 0.112831615 -0.05722337 0.0823572 -0.10813023
-0.1335473 -0.00028495362 0.0539455 -0.031224243 0.079207845 -0.022586018 -0.0622145 0.00023368072
0.0029955397 0.048993647 -0.002845521 -0.0032947874 0.0049259127 -0.017749472 -0.030551786 -0.03679805
-0.02760334 0.011874747 0.054922584 0.007730874 -0.018009536 0.09177546 0.042144343 0.10018356
0.07648664 0.025195643 -0.09537076 -0.004674115 -0.0765253 -0.096153654 -0.113538794 -0.025278574
-0.06959565 0.05438011 0.068412475 -0.09161312 -0.020987365 -0.02534523 0.07062114 0.0693285
0.0014637933 0.05135012 0.118153825 -0.12109231 -0.09139013 -0.06411194 0.12235119 0.008138544
-0.060319845 -0.035050947 0.03125788 -0.004732726 0.031384636 -0.014487884 -0.015333734 0.1391957

bias f4 [16]
00000000: 21c6 8337 ca1f 2b36 841d 08b5 3ef8 92b5
00000010: 79bc 78b4 df7c 84b4 4d68 f833 d2a5 7cb4
00000020: 8c45 8434 05b5 c1b3 0646 8c34 788b 8d32
00000030: 2958 6735 7419 2f35 aeb0 a134 83c4 dcb3
1.5708678e-05 2.549949e-06 -5.07069e-07 -1.0950096e-06 -2.3165366e-07 -2.4677772e-07 1.1567372e-07 -2.3529654e-07
2.4637518e-07 -9.02019e-08 2.612798e-07 1.6477983e-08 8.6182496e-07 6.522962e-07 3.0117138e-07 -1.02802936e-07

weight f4 [16]
00000000: d229 573f ac66 543f 2077 603f 0e5e 523f
00000010: f36f 2b3f b786 163f ea66 363f 150a 433f
00000020: 118b 143f 1dd3 3d3f e7e8 303f 6bc7 333f
00000030: 71d3 513f 1534 3a3f c41b 383f a981 593f
0.8404819 0.82969165 0.8768177 0.82174766 0.66967696 0.5879931 0.71250784 0.7618726
0.580247 0.7415026 0.6910538 0.7022616 0.8196326 0.7273572 0.71917367 0.8496347

bias f4 [16]
00000000: 33c2 07b9 de58 02ba 7c3d 0f3a 0b08 88b8
00000010: 630e 29ba 6a64 70b9 72b0 f039 dc9f acb9
00000020: 21c2 feb9 f734 ae39 ab86 b7b9 468c 2139
00000030: 7c4c 6dba 6bee 0139 3e4d 15b9 5c5f 8fb9
-0.00012946948 -0.00049723487 0.0005464179 -6.4864835e-05 -0.0006448982 -0.00022925591 0.0004590783 -0.000329255
-0.00048591293 0.00033227328 -0.00035004815 0.00015406412 -0.00090522296 0.00012391216 -0.00014238522 -0.00027346134

running_mean f4 [16]
00000000: 1758 8739 e4f4 91bb 4215 01bc a56e 5539
00000010: 15b4 abb9 f3cc 0abb ffab bd3b 6350 ad3b
00000020: 69f5 f5b9 da13 a83b d8a3 af39 eb05 983b
00000030: e7ed fdba 5ab5 5f3b 1933 90bb 72a3 bb3b
0.0002581484 -0.004454242 -0.007878603 0.00020354481 -0.00032749833 -0.0021179288 0.005788326 0.005289124
-0.00046912886 0.0051293196 0.00033500674 0.0046393774 -0.0019373269 0.0034135194 -0.0044006226 0.0057262713

running_var f4 [16]
00000000: 480d 0138 d213 c538 345c 2b39 35b4 7538
00000010: 10da 4d38 7ff3 ce38 ef7c 3e39 37c3 fe38
00000020: 6210 6f37 4f32 0e39 3e5e 1438 0f66 8938
00000030: 38ae 4138 ad1b 0439 0ab0 fd38 7a4d 0d39
3.0768366e-05 9.397384e-05 0.00016342179 5.8580383e-05 4.9078895e-05 9.8682e-05 0.00018166353 0.000121480254
1.42493245e-05 0.00013560917 3.537372e-05 6.551679e-05 4.617704e-05 0.00012598811 0.0001209677 0.0001347567

weight f4 [32, 16, 5]
00000000: 71a5 87bd 3307 643d e700 5dbd fdb8 de3c
00000010: 3f59 1dbd b95f bdbd a214 80bd da62 d33c
00000020: 935c ba3d fa9b 863d 481f 52bd 9088 7f3c
00000030: 206a bb3d 75dd 013c 24d7 683d 8132 cd3d
00000040: aadc 57bc da55 8cbd 8ab1 01bd e670 393c
00000050: 3faa 71bc 74ef e8bb 9f96 5b3b f923 38bd
00000060: 217c 06bd 1472 093d a724 9fbd ee53 063d
00000070: 6fb3 2dbd 3c78 57bd 08a0 363d cb57 a7bd
00000080: 10b5 cc3b 511f 6abd 28c7 46bd bc7e e13c
00000090: 7a15 77bd 363c 5e3d 3432 67bd 0a54 8d3d
000000a0: 5ac1 503d b787 f53c e7bc 00bb bb9e 853b
000000b0: 4fe0 0ebd fd09 5f3d 3fb9 023c ca9b 14bc
000000c0: e7d3 5b3c 6faa 04bd c893 08bd d5ae 423d
000000d0: 7363 a33d 1383 a5bc 67a7 b8bc 0763 103c
000000e0: 60bc 113d 5a1e dabd 9865 143d dda3 31bd
000000f0: f67c c23d 09dc 61ba 830a 54bd a5d1 523d
00000100: 5924 39bd 5b1b aabd 7d42 afbd ba4c 63bd
00000110: ed07 88bd f2c5 eb3b 954f b7bd 0741 9cbc
00000120: d24e 81bd d9c0 50bb 358f d63d cf8a fa3c
00000130: d7a5 553c fdc2 7d3d 19e3 c9bc 898f 3abc
00000140: fecf 65bd 5add 35bd 65ba a33c e4dc 2a3d
00000150: 6039 50bd d988 13bd 24a0 44bd b089 59bd
00000160: 1d21 323c 9666 993c 20b5 353d 21d3 493d
00000170: 7477 983d ebac 5c3c 04eb c73b 580a 60bd
00000180: 96e8 e7bc 5c97 fbbc 72d8 88bd d748 8e3c
00000190: fdb4 3cbd c284 55bd 036c 5cbd 5ea4 e33c
000001a0: b13b 753b 8b3a 3cbd c400 c1bd 0698 01bd
000001b0: 4ca1 233c f6ef 3d3d 3dbc 423c b3c7 34bd
000001c0: 5863 98bd 5e4f 3cbd f120 c2bc 516f 78bd
000001d0: 1a2d 1b3c e19f 3fbc 0e0d 07bd c9a8 7dbd
000001e0: 6cb4 8c3c 30d3 b6bc 2c07 8b3d 8aa3 b03c
000001f0: 7cd7 6e3d 1ee4 543d 169b 0ebc 8fca 0b3c
00000200: 17c2 1ebd 792d 663c 6210 b93b 790c e43c
00000210: bc2b 2b3b 29be 1bbd 515d caba cba1 00bd
00000220: fa67 a1bc 6913 6fbc cb1e cfbc dffa 82bd
00000230: 6d0e 80bc 29e0 5abd 9669 5a3c 2b8d bdbc
00000240: 6d58 c23c 9e30 2a3c c177 16bc 66fc 55bd
00000250: 2b2b 55bd 7834 103d 006c 5dbd ecb5 613d
00000260: 2029 8bbd 28bf c1bc d2ee 86bc 6dce 42bd
00000270: d22a 81bd cd9d 52bd c069 2dbd 0ba6 72bd
00000280: cca7 833c bae9 9abd f766 bdbc 1c9b cb3b
00000290: f629 a43d 5bbc 9e3b fc13 113d 667a 94bd
000002a0: f63c 2e3d 9623 7ebd aa71 9f3d f626 2b3d
000002b0: 692a a83d 6f42 103d fb32 5ebd 4367 b6bc
000002c0: 7692 99bd 990d 56bd df1f 8abd eafe 78bc
000002d0: 67bb 063d 3f02 6d3c fdf0 58bd 83ae d5bc
000002e0: 25c2 8a3d 31b8 043c b0a3 91bc 31ce 3ebd
000002f0: 748d 56bd c36f 773c 5e10 913d db6e bb3c
00000300: e046 32bd 0d3b 6dbd 0ea2 9ebd 04b2 0b3d
00000310: e439 d93b 5fb6 583c cff6 55bd 1eb7 8abd
00000320: a3a8 81ba abcd b33c 7d7e 673d 5850 d23b
00000330: 45eb d33c 9945 b43d bdb8 14bd a6b9 13bd
00000340: b8c9 0abd 97a7 ae3c 365d 243d d543 c7bc
00000350: 8738 523d da54 60bd 36b8 80bc 3593 423d
00000360: 8cba 03bd 9350 18bd cf1a e6bc 251c 17bd
00000370: 3588 13bd 160e 4cbd 1e62 233c 4ddc 1c3d
00000380: a66f 08bd e842 85bd e631 973c 26cd 9abd
00000390: 79e5 39bd ef55 71bd c0a4 b43c 1cd1 703c
000003a0: bc44 a53b fe27 dabc d2d0 b3bd 0dc5 ac3c
000003b0: ad70 6fbd 3517 4ebd 1147 babd 02a3 c6bc
000003c0: 74d3 2a3d 0823 85bd f010 7abd f1f8 3fbd
000003d0: c198 c2bc d26a fdbc 5f59 89bb ae3a 06bd
000003e0: c30c 05bc 021f ebbb a0b6 96bd 0a93 3ebd
000003f0: dd97 29bc b9d0 4d3d 338e ac3c b986 abbc
-0.06623352 0.05567093 -0.05395594 0.027187819 -0.03841519 -0.09246773 -0.062539354 0.025803972
0.090996884 0.06572719 -0.051299363 0.015596524 0.09151101 0.007926335 0.0568458 0.100193985
-0.013175169 -0.068523124 -0.031663455 0.011318421 -0.0147500625 -0.007108623 0.0033506525 -0.04495618
-0.032833222 0.03355606 -0.07770663 0.032794885 -0.04240745 -0.0526049 0.04458621 -0.08171042
0.0062471703 -0.057158772 -0.048529774 0.027526252 -0.060323216 0.05425664 -0.05644436 0.06900795
0.050965644 0.02997194 -0.0019643845 0.00407776 -0.034881886 0.054452885 0.007978736 -0.009070346
0.013417221 -0.0323891 -0.03334406 0.047530014 0.07977953 -0.020204103 -0.022540761 0.008812672
0.03558004 -0.1065032 0.0362297 -0.043369163 0.09496491 -0.00086158566 -0.051767837 0.051469464
-0.04520068 -0.08305999 -0.085576035 -0.055493094 -0.06642137 0.007195228 -0.08950726 -0.019073976
-0.06313862 -0.0031853227 0.10476533 0.030583767 0.013040028 0.061953533 -0.024644421 -0.0113867605
-0.05610656 -0.04440055 0.01998634 0.041714564 -0.050835967 -0.03601918 -0.048004285 -0.053109825
0.010872153 0.018725675 0.044362187 0.049273614 0.07444659 0.013468961 0.006101014 -0.054697365
-0.028309148 -0.030711822 -0.06681909 0.017368717 -0.04607104 -0.05212856 -0.053813946 0.027788337
0.0037419612 -0.04595427 -0.09423974 -0.03163912 0.009987187 0.046371423 0.0118857 -0.04413576
-0.07440823 -0.045974128 -0.023697348 -0.060653035 0.009471202 -0.011695833 -0.032971434 -0.061928544
0.017175876 -0.022317499 0.06788477 0.021562357 0.05831097 0.051975362 -0.008703968 0.00853218
-0.038759317 0.014048927 0.005647705 0.027837979 0.0026118597 -0.038023148 -0.0015439187 -0.031404298
-0.0197029 -0.01459203 -0.025283238 -0.06395506 -0.015631879 -0.053436432 0.013330838 -0.023138603
0.023723805 0.010387568 -0.009183825 -0.05224266 -0.05204312 0.035206288 -0.054058075 0.055105135
-0.06794953 -0.02365072 -0.0164713 -0.047560144 -0.063069955 -0.05142002 -0.04233718 -0.059240382
0.016071223 -0.07564111 -0.023120387 0.006213559 0.08015816 0.004844231 0.03541945 -0.07249908
0.042538606 -0.062045656 0.077853516 0.041785203 0.08211214 0.035219606 -0.054247838 -0.022266036
-0.07498638 -0.05225906 -0.0674436 -0.015197495 0.032893565 0.014465868 -0.0529642 -0.02608419
0.067753114 0.008100555 -0.017778248 -0.04658336 -0.052380994 0.01510233 0.070832 0.022880008
-0.043524623 -0.057917643 -0.07745753 0.034105316 0.0066292156 0.013227074 -0.05223733 -0.06773208
-0.0009892177 0.021948656 0.056517113 0.006418269 0.025869021 0.08802337 -0.036308993 -0.03606572
-0.03388378 0.021320147 0.040127955 -0.024324337 0.05132344 -0.05476842 -0.015712839 0.04750367
-0.032160327 -0.037186217 -0.028088955 -0.036892075 -0.03601857 -0.04981812 0.009972123 0.038296033
-0.0333096 -0.06506902 0.01845641 -0.0755866 -0.045384858 -0.058919843 0.022051215 0.014698293
0.005043594 -0.026630398 -0.08780064 0.021090055 -0.058457065 -0.0503151 -0.09095586 -0.02424765
0.041705564 -0.06500822 -0.06105131 -0.04686827 -0.02375448 -0.030934725 -0.004191562 -0.032770805
-0.008120718 -0.0071753273 -0.07359052 -0.046526946 -0.010351148 0.05024788 0.0210639 -0.020938264

bias f4 [32]
00000000: 21c7 05b3 c5b3 1cb4 4dbf d835 4756 a233
00000010: 8c01 0eb3 a389 4a31 3f6f c8b5 bc87 81b5
00000020: 3148 0d35 77eb cb35 fc15 0cb1 14e6 6a32
00000030: fda1 50b4 9e41 ec36 b115 a337 34d3 8db2
00000040: 9a41 a4b2 bb85 f1b5 c19f 20b4 443b fcb4
00000050: 1e59 0bb7 b9ea a6b5 39b1 8c34 6845 0035
00000060: 3883 2eb5 4aee 9b30 1454 82b3 e475 e8b3
00000070: 6d08 d42f d920 ee34 06f2 8b33 abb7 8cb4
-3.1147582e-08 -1.4594032e-07 1.614893e-06 7.5594066e-08 -3.306336e-08 2.9473106e-09 -1.4933538e-06 -9.650753e-07
5.2631646e-07 1.5193208e-06 -2.0385178e-09 1.3672906e-08 -1.943044e-07 7.040987e-06 1.9441215e-05 -1.6510604e-08
-1.9121945e-08 -1.799482e-06 -1.495928e-07 -4.698178e-07 -8.305795e-06 -1.2436277e-06 2.6205979e-07 4.7784715e-07
-6.5011e-07 1.134546e-09 -6.0688905e-08 -1.0824786e-07 3.8568562e-10 4.4354854e-07 6.516716e-08 -2.6210668e-07

weight f4 [32]
00000000: 7cd0 423f 945e 523f e702 563f 081b 0e3f
00000010: 66be 533f 9286 4e3f 1f61 543f 7075 583f
00000020: 87cf 4d3f 02bc 603f 24eb 643f a484 343f
00000030: 0dfd 433f 0a43 363f 68c8 663f 54f7 553f
00000040: 9a8f 613f ae7c 3c3f d6cc 543f e8ad 693f
00000050: 5d88 143f 7598 363f 564c 673f 2e2a 403f
00000060: 6e9b 413f 71d9 203f 909b 553f d092 273f
00000070: ad9c 303f 6621 383f 2b1b e13e aa4d 6b3f
0.7609937 0.82175565 0.8359818 0.55509996 0.827124 0.8067409 0.82960695 0.84554195
0.80394787 0.8778688 0.89421296 0.70514894 0.76558 0.71196043 0.90149546 0.8358052
0.88109744 0.73627746 0.83125055 0.91280985 0.58020574 0.7132638 0.90350854 0.7506436
0.7562779 0.6283179 0.83440495 0.65458393 0.6898907 0.7192596 0.4396604 0.9191538

bias f4 [32]
00000000: 9794 c239 f211 09b9 1f35 4ab8 b929 2c39
00000010: 2f83 e239 a407 5a39 3e87 97b9 2163 11b9
00000020: 0956 52b9 31d9 26b9 cbd9 0c39 8f35 183a
00000030: c53f 8f38 9ea3 7139 a3f6 4db9 b58f ec39
00000040: f9a8 cfb9 273b 56ba 2b24 dbb7 b132 adb9
00000050: d4b8 70b9 d8ea 363a d145 1bba fd59 b13a
00000060: 8383 03ba c916 ba39 24a9 ebb9 ca54 093a
00000070: f9ba 9b39 0e57 41ba 0c78 a6b9 ae23 273a
0.00037113272 -0.00013072023 -4.8210026e-05 0.00016418741 0.00043203818 0.00020792946 -0.00028901728 -0.00013865206
-0.00020059211 -0.00015911904 0.00013432575 0.00058063207 6.830649e-05 0.00023044503 -0.00019642203 0.00045120498
-0.0003960801 -0.00081722665 -2.6123676e-05 -0.000330349 -0.00022957037 0.00069777435 -0.0005923184 0.0013530847
-0.000501685 0.0003549366 -0.00044948712 0.000523877 0.0002970321 -0.0007375338 -0.0003175143 0.0006375861

running_mean f4 [32]
00000000: 68cb 85bd 8f46 88be 94d6 3bbe e710 dfbd
00000010: 7611 093e 194d 86be f093 093e 8551 44be
00000020: b348 82bc 260a b6be f117 0d3e d8a1 a2bb
00000030: 9382 903d 2d45 ba3d 0a19 a7be 915a 4bbd
00000040: af45 7cbe d7d3 7abe 7624 c63e 7633 f7be
00000050: 6efe 62bc 4b16 48be 860b 463e d609 8fbb
00000060: e60a 43be f51d bc3d 8ffb 863e 15d4 193c
00000070: 33ae 993d 02b3 5e3d 26d4 f7bd 68e8 ebbc
-0.06532937 -0.26616332 -0.18343574 -0.10891896 0.13385567 -0.26230696 0.1343534 -0.19171722
-0.015903806 -0.35554618 0.13778664 -0.004963141 0.07056155 0.090952255 -0.3263629 -0.049646918
-0.24635957 -0.24494873 0.38699692 -0.4828145 -0.013854606 -0.19539754 0.19340333 -0.004365186
-0.19047126 0.09185401 0.263638 0.009388943 0.07503929 0.054369934 -0.12101011 -0.028797343

running_var f4 [32]
00000000: f59c 9d3d c42a 8f3e 378d 6f3e bb6c 183d
00000010: 941d f93d 60c7 493d 8ce4 4c3e ccb6 9c3d
00000020: d123 663d 4128 383e 7243 263e 4c1f 593d
00000030: 02b6 863d 7bce bc3d 0526 903e e505 d83d
00000040: e19b ea3d 3652 cd3d 15e8 533d 2685 b83e
00000050: 05b1 2c3d d145 763d 8f60 c73d 4bbf 8b3d
00000060: 4c86 783d b77e dc3c dabb 2c3d 25fe bb3d
00000070: eaa6 773d 5068 783d c05b e33d 9a6e b83d
0.07695953 0.27962315 0.23393713 0.03721307 0.12163845 0.049262404 0.20009059 0.07652053
0.0561865 0.17984106 0.16236666 0.053008363 0.06577684 0.092190705 0.28154007 0.10547999
0.11455513 0.10025446 0.051735003 0.36039084 0.042161006 0.060125176 0.09735214 0.068235956
0.06067495 0.026915891 0.042171337 0.091793336 0.060461916 0.060646355 0.11101484 0.090054706

weight f4 [64, 32, 5]
00000000: 1042 82bc 204b 0a3c 031a 1c3d 0926 293c
00000010: 658a 90bc 95c0 91bc f638 4d3b 2bfe 1fbb
00000020: a70b dc3b 2239 5d3c 364a 9cbc bfba d8bb
00000030: 21e9 5b39 7c48 943c c21f c03b 19cf ad3c
00000040: 7587 94bc 6aca 39bc caf4 403c 73ac c03b
00000050: 8b88 433d ad0d d0bc 6eb1 4a3c 2ddf cabc
00000060: 5cbe 043d 4f9d 3539 33f8 a83c 3489 b6bc
00000070: 6090 a1bc 8f8b bb3c 165a 983c 2041 d43c
00000080: aa19 f9bc cfa5 74bb d213 2cbc c10b e43c
00000090: 76de 233d 17b0 183d 1980 5b3d 5840 e73c
000000a0: 8550 8f3c 12f6 80ba 6d3f 3cbc 5061 0cbc
000000b0: 394b 72bc dbb9 a2bc 0771 13bb 16c7 9bbc
000000c0: fe48 92bb b401 9e3c 3060 a3bc a657 2abb
000000d0: 0bb2 0fbc 4953 b9bc 8506 b43c 382a ee3c
000000e0: 78c4 9dbc 2792 75bc 1d44 003b 3b11 163d
000000f0: c27c d8bc 9b14 273c 3025 eabc a178 24bc
00000100: 430d 163d 6e2a a03b 76b4 b63c d3f2 973c
00000110: ea04 f7bc 9fc6 8fbc 0bb6 83ba 2952 663c
00000120: 58ad 22bc 278e 4d3b 53a1 0cbc 347d 093d
00000130: 8924 383c ce16 1ebc 2f45 4ebb e7d6 9b39
00000140: 2e06 81bc 07ce ee3c 0017 b83c d91c de3c
00000150: 7fd7 233d 7e4b f23b 2dc0 87bc 2c41 543b
00000160: 8162 1e3c a46a 803c 6a4b 84bc d54a 4fbc
00000170: 1915 22bd 2dd5 91bc dfdf 5d3c cc4d 4bbd
00000180: 6f5d fabc 8be1 dcbb 6e3f a13b b4ff 58bc
00000190: 7811 c13b 4637 843b d1ec d6bc a8f5 81bc
000001a0: 5fa2 00bc 1dcb a2bb 87aa 9b3a 333c c4ba
000001b0: af70 4c3c f630 f13c 4dba 133c b960 a1bc
000001c0: 496d 8fbc 72ee 39bc 3fb7 f9bc 6a4d abbc
000001d0: 5a5b d7bc c421 8dbc 14af 633c 62f9 753c
000001e0: e968 8ebc e166 19bb 79a5 063d e6d3 af3c
000001f0: 92d4 e3bb e349 35bc d079 6dbc 9cc1 05bd
00000200: 1a61 d8bc e674 813c 0a20 453d 9397 063d
00000210: 521d f9bc 2c8c a7bc ec07 9a3c a3b6 ab3b
00000220: 88ab 053a 9a93 bfbc 980f c8bc 7f67 043c
00000230: dad5 003c 1ab4 4aba f22e d4bc 40d8 9cbc
00000240: dd8c 0f3d 6fe2 273d 3e52 52bc 3f37 f2b9
00000250: cbfa 24bb e335 1cbd 1a64 123c 6adf 023c
00000260: afdb ec3b 9cd1 da3a a871 63bb acb3 0a3c
00000270: 134d e03c d080 273c cd99 c43b 9bfb eb3c
00000280: c0be 26bc d911 dfbc f28e 8dbb 6fba 093d
00000290: 6ada 883c 4f5b 36ba 903a 4fbc a56a 85bc
000002a0: 725c b7bb 73be 513c fc36 dc3a b7f9 77bc
000002b0: 7d3d 9cbc bf37 2fbc 2afe 013c c002 72b9
000002c0: 8fa8 9a3c 7a74 ab3c 777b cf3c 5876 c83c
000002d0: 2711 da3c bd20 253d f76f 893c 3b3c a43c
000002e0: b5a0 4fbc c193 393b 14d7 95bb 0692 2c3d
000002f0: 28e1 d2bc 1ad3 b9bc 33e6 1c3d d751 853c
00000300: d372 c63c 6ce6 a0bc 7936 6abc c870 3fbc
00000310: 79a3 76bb 01e7 0a39 9551 78bc 24ec 39bc
00000320: 044c 9b3c 2445 733c da86 a83b 3004 9aba
00000330: 101c 4bbc cf27 b43b f790 1c3c f33b efba
00000340: 20de a6bc 8aa7 0cbc 27bb 173d 8b3b 8a3c
00000350: 2dc1 a83b 599c 403b 5278 913c 3fc8 7b3c
00000360: fa8f 3f3c 7de6 bd3b bd0c 1fba 8b25 7b3b
00000370: fd33 d93c a0a3 463c f35a ad3c 92fd 83bc
00000380: df5c 1bb7 5b04 013d c02d 1e3d a66c 8d3c
00000390: dc59 ab3c 3aef 0d3c d29c b2bb 33a0 a2bb
000003a0: c46f 03bb f157 17bc 16cd c33a f7f0 2fbc
000003b0: d11a d8bb 3856 44bc af9f 393c ef78 be3c
000003c0: c522 cbbb 0b34 62bc f54f 89bc 7201 99bc
000003d0: 3e9e 9bba 97ac b43b aa94 d43b c83f a7bc
000003e0: 0426 9b3b 210c 593c 2b60 febc 818e 633c
000003f0: 5c47 f13b f8a0 ff3b 2d0f 883c 4bc4 853c
-0.015900642 0.008440763 0.038110744 0.01032401 -0.017644117 -0.017792026 0.003131447 -0.002441297
0.0067152563 0.013502391 -0.019078355 -0.0066140587 0.00020972315 0.01810097 0.005863161 0.021216916
-0.018130997 -0.011339763 0.011777112 0.0058799325 0.04773764 -0.025397146 0.012371404 -0.024764622
0.032408103 0.00017320107 0.020626163 -0.02228222 -0.019722164 0.022893695 0.018597644 0.02590996
-0.030407745 -0.0037330275 -0.010502772 0.027837636 0.040007077 0.037277307 0.05358896 0.028228924
0.01749445 -0.000983896 -0.011489731 -0.008568123 -0.014788442 -0.019864013 -0.002249779 -0.01901583
-0.0044642678 0.019287921 -0.019943327 -0.0025992184 -0.008770476 -0.022622721 0.021975765 0.029072866
-0.019258723 -0.014988459 0.0019571849 0.036637526 -0.026426677 0.010197784 -0.028582186 -0.010038526
0.03663374 0.0048878705 0.022302847 0.018548405 -0.03015371 -0.017550765 -0.001004876 0.014057674
-0.009929024 0.0031365247 -0.008583385 0.03356667 0.011239179 -0.009648992 -0.0031474342 0.00029724019
-0.015750017 0.029150976 0.022471905 0.027113365 0.040000435 0.0073942533 -0.016571129 0.0032387478
0.00966704 0.01567585 -0.016149241 -0.012652119 -0.0395709 -0.017801845 0.013542145 -0.04963474
-0.03056213 -0.006740754 0.0049208915 -0.013244558 0.005891975 0.0040349094 -0.02623597 -0.015864208
-0.007851212 -0.0049680606 0.0011876383 -0.0014971554 0.012478038 0.029442292 0.009016586 -0.019699441
-0.017508166 -0.011348354 -0.030482886 -0.020910937 -0.026288677 -0.017228015 0.013896722 0.015013071
-0.01738401 -0.0023407268 0.03287265 0.021463346 -0.0069528306 -0.011064979 -0.014494374 -0.032655343
-0.02641349 0.015802812 0.048126258 0.032859396 -0.030409489 -0.020452581 0.018802606 0.005240278
0.00050991075 -0.023385812 -0.024421498 0.008081316 0.007863486 -0.00077325257 -0.025901292 -0.019146085
0.035046447 0.04098743 -0.012836991 -0.00046198998 -0.0025173898 -0.038137328 0.008934999 0.007987836
0.0072283368 0.0016694549 -0.0034705196 0.008465689 0.027380502 0.010223582 0.00599978 0.028806498
-0.010177314 -0.02723019 -0.004320019 0.033625063 0.01670571 -0.0006956355 -0.01264824 -0.016286204
-0.005595737 0.012801754 0.0016801055 -0.01513522 -0.019072289 -0.010694443 0.007934133 -0.00023079943
0.018879203 0.020929564 0.025327427 0.024470493 0.026619507 0.040314425 0.016777022 0.020048251
-0.012672593 0.0028316828 -0.0045727585 0.042131446 -0.025742128 -0.022683669 0.038305473 0.016274376
0.024224674 -0.019641124 -0.014295214 -0.011684604 -0.0037634058 0.00013246761 -0.015156169 -0.011347804
0.018957146 0.014848027 0.0051430287 -0.0011750516 -0.012396827 0.0054979096 0.009556047 -0.0018252119
-0.02036959 -0.008584866 0.037043717 0.016874095 0.0051499815 0.0029390065 0.017757569 0.015367567
0.0116920415 0.0057952986 -0.0006067267 0.0038321938 0.026514048 0.012123972 0.021161532 -0.016112123
-9.260343e-06 0.031498294 0.03861785 0.017263722 0.020916872 0.008662993 -0.0054508233 -0.004962945
-0.0020055631 -0.009237275 0.001493844 -0.010738603 -0.0065949936 -0.011983447 0.011329575 0.023251025
-0.006199213 -0.013806353 -0.01676176 -0.018677447 -0.0011872721 0.0055137384 0.0064874487 -0.020416155
0.0047347564 0.013247521 -0.031051716 0.013888956 0.007363243 0.0078011714 0.016608799 0.016328951

bias f4 [64]
00000000: 80f4 cbb3 cd09 08b3 85ae b531 09d4 47b4
00000010: 73bd a035 ffa9 2937 1a61 74b6 f54f aeb4
00000020: 72d3 ac33 6ffc bd31 cde3 64b2 6000 8733
00000030: eee6 cab1 a416 9db6 6c2a 6831 4ded d9b0
00000040: f267 afb3 91a8 f432 ae1b 4bb4 4b2f 2333
00000050: 5c18 3cb1 545b e7b1 ccf4 29b2 9ac0 5db3
00000060: 3f7e f1b2 ab68 24b3 5f5f 6eb0 95a9 f434
00000070: dd80 7d35 0913 dab1 af1b b4b4 30ca b4b5
00000080: 4e6c 0634 3cd9 8e32 0fea 1db3 8a91 b6b7
00000090: de25 25b6 3fe5 4f32 8b9b 2333 1854 76b7
000000a0: 7967 2735 70ce 2631 893a a233 2a09 0734
000000b0: 8d1e 4032 274e 3630 2180 59b1 db19 28b2
000000c0: 8698 7db4 a5f4 f6b2 acc0 9fb0 bd04 3d31
000000d0: 148c cb34 47e3 04b5 a73d 3833 bd12 6434
000000e0: 4c3a aeb6 7bac b6b2 79fd 08b2 1698 99ad
000000f0: 8571 b2b7 6c1a 3237 0d54 efb4 4edf ad34
-9.4973984e-08 -3.167388e-08 5.287634e-09 -1.8610457e-07 1.1976066e-06 1.0112765e-05 -3.6415354e-06 -3.2468202e-07
8.047836e-08 5.5293223e-09 -1.3323143e-08 6.2864956e-08 -5.9052274e-09 -4.6816003e-06 3.3784557e-09 -1.5856273e-09
-8.16798e-08 2.8481994e-08 -1.8915918e-07 3.7994408e-08 -2.7371447e-09 -6.7333676e-09 -9.892755e-09 -5.1630742e-08
-2.8113503e-08 -3.827942e-08 -8.6719426e-10 4.557193e-07 9.4437365e-07 -6.346799e-09 -3.3547755e-07 -1.3469889e-06
1.2519124e-07 1.6629762e-08 -3.6767286e-08 -2.1763863e-05 -2.4608958e-06 1.210111e-08 3.809286e-08 -1.4682322e-05
6.236292e-07 2.4273525e-09 7.55436e-08 1.2576189e-07 1.1182817e-08 6.6322275e-10 -3.165049e-09 -9.784766e-09
-2.3617949e-07 -2.874942e-08 -1.1623533e-09 2.7505813e-09 3.7913617e-07 -4.9504564e-07 4.289691e-08 2.1240972e-07
-5.1923907e-06 -2.1266024e-08 -7.973875e-09 -1.7461626e-11 -2.1272115e-05 1.0615779e-05 -4.4578374e-07 3.2386237e-07

weight f4 [64]
00000000: bbe0 ba3e 98dd f43e e258 563f 3805 15b7
00000010: 9118 543f e121 4f3f 9208 f33e 0963 153e
00000020: cf69 203f a90c 163f 7b61 343f 94bd cf3e
00000030: 9316 0c3f 1e4a f03e 0e2a bc3d 2177 133f
00000040: b938 273f 6749 663e cbcc b83e b381 233f
00000050: 123c 453f 0f43 343f 633a 593f 1ea7 7d3f
00000060: 96c7 013f 2b95 b83e 3126 443e 7daf 593f
00000070: d1ec 0d3f d3f1 523f 44a0 2e3f 3c16 be3e
00000080: ea6e 553e 5f47 2d3f 92d4 413f 5968 c33e
00000090: 0c7b 0e3f a0fd c73e c4ee 3a3f 79cf e53e
000000a0: e47b 713f d527 2a3f f749 643f 7acc c83e
000000b0: 4d1e 993e 1e8b a63e 9bfa 333e 2053 523f
000000c0: 85d5 a73e 3480 103f 782d 5c3e f3de 2f3f
000000d0: 3a04 3f3f 08de 153f f1bd 643f 100e fe3e
000000e0: 5907 a23d be3d 3a3f ebcd 4c3f 687c 423e
000000f0: ad9f 393f 5ffd 4d3f aeb7 223f 4eb3 9f3e
0.3649958 0.47825313 0.83729374 -8.882307e-06 0.82849985 0.8091107 0.47467476 0.1458856
0.6266145 0.5861307 0.70461243 0.40574324 0.54721946 0.46931547 0.09187709 0.5760365
0.65320927 0.22488938 0.36093745 0.6386978 0.77044785 0.70414823 0.84854716 0.99083126
0.5069517 0.36051306 0.19155194 0.850334 0.5543948 0.82400244 0.68213296 0.37126338
0.20843092 0.6768703 0.7571498 0.38165548 0.55656505 0.39060688 0.7302058 0.44884852
0.9432967 0.6646703 0.8917536 0.39218503 0.2990593 0.32528013 0.17576067 0.8215809
0.3278009 0.5644562 0.2150172 0.6869957 0.74615824 0.5854192 0.8935233 0.49620104
0.07911558 0.7275046 0.80001706 0.1899277 0.7250927 0.8046474 0.6356152 0.31191486

bias f4 [64]
00000000: 2bf6 b6b9 dc09 35b9 cfea 1bba 3e14 22b6
00000010: a7cc 4138 d15c 1f39 f0a7 89b9 d23c 93b8
00000020: 8000 4b38 85a6 21ba b014 b038 3522 c7b9
00000030: 7038 7139 d54a 9bb6 4943 5d37 d3b8 243a
00000040: 1e9f 7fb9 a11a acb9 f562 20b8 c84e 8d39
00000050: cbbd ccb8 77a2 3239 5f6e 1439 a7aa 51b9
00000060: c3fe cc38 16c9 36b7 75bb 7db9 74dd 70b9
00000070: e809 4439 e718 a439 e841 e5b8 1da1 07b9
00000080: 036f a3b9 044d 32b8 8104 cdb9 263e b438
00000090: 743a 54ba 39f5 83b7 c8ee 1939 87e3 1538
000000a0: 4128 3ab9 90bb e037 15e7 0e39 5a33 8a38
000000b0: 28d6 a838 cefd 4f37 b200 d1b8 968e b7b9
000000c0: 0836 54b9 0f89 3238 6e74 d938 666b 94b9
000000d0: e6e9 7ab8 f0aa 5539 a25e 72b9 2f12 1ab9
000000e0: c6b3 3db8 aea1 e238 f5c9 d139 9234 42b9
000000f0: 3f66 8939 6d9b a238 e34a 05ba 5837 3539
-0.00034897155 -0.00017265178 -0.000594777 -2.4151664e-06 4.6205383e-05 0.00015197998 -0.000262558 -7.020835e-05
4.8399437e-05 -0.0006166476 8.396187e-05 -0.00037981724 0.00023004576 -4.6280716e-06 1.31882925e-05 0.00062836445
-0.00024377971 -0.00032826237 -3.8239134e-05 0.00026952312 -9.76283e-05 0.00017035926 0.00014155496 -0.00019995366
9.774931e-05 -1.0894864e-05 -0.00024197793 -0.00022970681 0.00018695707 0.0003129907 -0.00010931847 -0.00012934623
-0.00031172493 -4.2510233e-05 -0.00039104003 8.594645e-05 -0.00080958684 -1.5730608e-05 0.0001468017 3.573627e-05
-0.00017753338 2.6790221e-05 0.0001362826 6.589918e-05 8.050754e-05 1.2397255e-05 -9.966026e-05 -0.00035010715
-0.00020238024 4.2566153e-05 0.00010369053 -0.00028308778 -5.982248e-05 0.00020376942 -0.00023114172 -0.00014693358
-4.522854e-05 0.00010806635 0.00040014056 -0.00018520866 0.00026206856 7.753712e-05 -0.00050847064 0.00017282122

running_mean f4 [64]
00000000: b706 4a3d 8125 e13d 4533 003f 206b edb7
00000010: 74ee d53e 5827 3b3e 32a7 0c3d 2f0e bf3d
00000020: 9bc4 2d3e f808 573e 729f 80be e387 c5bc
00000030: 3c65 18bd c39c 1e3e e90d a3bd 7528 cabe
00000040: a0b9 283f fd95 903d d5d1 803c 8aad 5b3e
00000050: 574d 8c3d f710 753e 79f6 e1be 1051 eebd
00000060: daf7 293d 4c9e 37be 0fa9 d43d 08c2 5c3e
00000070: fdcf 513e 53ac 86be 7f6f e6bc 9a0a 9b3e
00000080: 5c14 813d 5529 3c3e bd37 2e3f ffac 1e3c
00000090: 26a9 dabe 6ce2 423e abbf c6bd 008e fe3d
000000a0: 476a 963e d210 cbbc e6f0 9fbe 5399 57bd
000000b0: 6216 da3d ab79 0d3e 0703 5d3d 64a0 12be
000000c0: a031 ef3d 151b 1b3e 8869 ffbc 2a04 413e
000000d0: b381 ccbd 9b65 3c3a cf96 7c3e 4c9e 87be
000000e0: 30f4 46bb dbf4 db3d 1bb1 553e 33df a23d
000000f0: d814 c4be ea31 1dbd ba57 39be 3095 fc3b
0.04932281 0.109934814 0.5007823 -2.8302486e-05 0.41783488 0.18276727 0.034339137 0.09328877
0.1696953 0.20999515 -0.25121647 -0.024112647 -0.03720592 0.15489487 -0.079616375 -0.3948399
0.6590824 0.07059858 0.015725056 0.21452919 0.06850689 0.23932253 -0.44133356 -0.11636555
0.041496135 -0.17931479 0.10383808 0.21558392 0.20489497 -0.26303348 -0.028129337 0.30281526
0.06302711 0.18375142 0.680538 0.0096848 -0.42707175 0.19031686 -0.097045265 0.12429428
0.29377958 -0.024788294 -0.31238478 -0.052636456 0.106488004 0.13815944 0.053957965 -0.14318997
0.11679387 0.1514705 -0.03117825 0.18849245 -0.09985676 0.0007186771 0.24666904 -0.26487958
-0.003035795 0.10740062 0.20868342 0.07952728 -0.38297153 -0.03837768 -0.18099871 0.007708214

running_var f4 [64]
00000000: 46ff 373d b1be ec3d 7beb ff3d 1aa6 d530
00000010: 289d 813d 96d3 6d3d 338a 9c3d 44cf 933c
00000020: fdc3 3b3e 8980 bf3d 19ea 913e 913e d23c
00000030: 871e 083d 54d6 013e d4fa 5a3c edbf 333e
00000040: a34b 823d 305d 3d3d cc6b 313d daae 473d
00000050: e04c 163e 9dc7 fd3d c106 733d 37b6 083d
00000060: f9ab 143e 9fec 883d a153 df3c 921a bf3d
00000070: 84b0 a83c 3abe af3e 8699 9b3c 0e32 193d
00000080: f19c 553c cf7e 333d a92f e43d d847 e43c
00000090: 11d5 a13d 2f54 133d 5ac1 463d 9f63 063d
000000a0: c363 133d 0241 b13d 840c 8b3e 2a34 683d
000000b0: af61 f23c a369 053d ad1e a73c 13a8 523e
000000c0: 464f 323d 6757 1b3d 4db8 863c c09a b53d
000000d0: 6090 483d 428f bb3d eac2 933d ebde 123d
000000e0: 82c5 ce3b dbef 9f3d 2e9d 863d a0ff 063d
000000f0: e643 333e 29ab 4f3e 2d7a fd3c 80a1 183d
0.044921182 0.11559809 0.12496086 1.5544999e-09 0.06328803 0.058063112 0.07643547 0.018043168
0.18336482 0.09350688 0.28498915 0.0256646 0.03323224 0.12679416 0.013365466 0.17553683
0.06362083 0.04623145 0.043315694 0.048750736 0.14677763 0.12391589 0.059332613 0.0333769
0.14518727 0.06685757 0.027261557 0.0933124 0.020591982 0.3432482 0.018994104 0.03740125
0.013037906 0.043822106 0.11141903 0.027866289 0.07901967 0.035968956 0.04852424 0.03280985
0.035983812 0.086549774 0.27157986 0.056690373 0.029587595 0.032571446 0.02040037 0.20571928
0.043532632 0.03792515 0.016445303 0.08867407 0.04896581 0.09158184 0.07214911 0.035857122
0.006310166 0.07809421 0.065729484 0.032958627 0.1750637 0.20280136 0.030942047 0.037263393

weight f4 [64, 64, 5]
00000000: d4eb 1aac 2b57 562d eb17 10ad 08fc 3c2d
00000010: 112a abac 9700 802c ccb2 82ad 9049 4332
00000020: 410a 8caf c7ad 6e2e 9050 02af 473d 86ad
00000030: ef55 2cae a24b 912d fd48 242e 6b61 8532
00000040: a49c 0d25 8d06 1530 70a5 a427 9215 a5b1
00000050: 1518 49ad 299f 702d 68ed 0bae 7310 12ad
00000060: 5386 92ab f757 98ac 4e0f c52d b69d c5ad
00000070: 9766 86ad 01a2 b8ac a4fe b7ab 9125 802c
00000080: f4b0 9dad ec65 07ad e247 d92c 010a 90ad
00000090: 391b e2b3 748e 07ae e5d1 6f2d 0b29 15b2
000000a0: 6e28 cc2a 863e 202c e0ab de30 c700 26ad
000000b0: 6d9f fdad c467 5aad 57c5 a9ac 10b0 9bad
000000c0: 4c6b c02d bce1 e6ab 2f04 64ad 417f ce2c
000000d0: 67f0 de2c 8e61 3c2d 84fb 2ead fb01 08ac
000000e0: 71da 24ac 64cf 122e be12 98ad d49e ae2c
000000f0: 176a c02c cecb 3fad f300 c5ac 0e78 382e
00000100: 372b 032d 4332 e42c a3ec 5cb3 24e0 8932
00000110: edf2 5cae 5a6d 482e 24af aab4 27c2 81ad
00000120: f511 b82f b3b6 752c 9058 772e 6b96 82ad
00000130: 2c7d a62d ae40 bb2c 3eda 4c2e 56d7 02ae
00000140: 1c1f 6e2c cca5 fe2d 2be1 11ae 5a8a de2c
00000150: fa80 adad e94a 2c2c 1dff 2eaf 7535 1c2e
00000160: 3fb7 17b4 b359 a336 e119 67ad 72ed 6bad
00000170: 8053 97ae ce3b 902f be4c 8aae 1868 152e
00000180: 4997 a72e bc0e fc2d 94b5 d9ad bcb5 9bac
00000190: 3df2 abad 48bd b52c 7b7a 4b2d af7d 292d
000001a0: 43d2 8dad d40d 9bb3 efec a4ac 3cf4 75ad
000001b0: 9a52 142d 310e b1ad 8aa2 3bad 58e7 43ac
000001c0: 3c58 272d 7f05 c3ad e06b 14ac 55dd 3c2c
000001d0: dfd8 24ae e862 c9ac b0df 59ac 68a7 0aad
000001e0: 86a6 182c 28ad a3ac eac3 0537 f6e4 8b35
000001f0: 75b0 1a2d 9660 302d 5153 652d 4002 812d
00000200: 666e 3f2d fa7e 882d 661c c32b 3e28 7db6
00000210: 8208 ba2c 53c0 58b0 9aa7 f32e 1ead df2d
00000220: ec87 ba2c 1dd7 c7ac 7d60 ad2c 6184 b62c
00000230: c4e2 c7ab 8a1f 5bad 4fcd b7ac 3f3b 25ad
00000240: e485 9bad a1e5 1e2e dc5c fead 4356 97ad
00000250: 8301 1bad b638 40ad fc93 4aad ac61 cdac
00000260: 1ef8 702c 3fb3 f7ac 541e fd2d 3afc 19ac
00000270: 97bf aa30 743a 8533 8105 50b3 e342 10b0
00000280: 44fc 7dae c71d 372e 5c25 6e2e 196b 0934
00000290: 81c2 032e f55a c52a 0e65 e1b4 92e2 18b2
000002a0: 1d18 61ae 33cc 4fad e349 2b2d 8fb7 7eae
000002b0: 1809 83ac 1a46 a4ad 16a9 0dad b9fd 242b
000002c0: 8b09 b5ad b16d d130 ad97 212d 3a0c ba2d
000002d0: 2432 6d2d db37 b22d c1ae 7d2d 3de6 40ab
000002e0: 423e 0e2d 16af 1bad ae77 8e30 227f 5caf
000002f0: b7e8 cbb3 4fa7 22b2 3239 89ad 69a5 002d
00000300: a4bd fc2d 18ce eead 0070 7a2d 1b3e 022d
00000310: 151c c92c 66e8 a32e 453a ceb4 14a5 d12d
00000320: a88e 4eab db2e 0cad 7578 872d 14b7 442e
00000330: 2d8e b32d 7234 24ad 05e6 8d2d b8dd 122d
00000340: 30d3 d52b 97c1 a7ad fa4a a5ad a9d0 5a2d
00000350: 28d8 b9ac 3f61 3f2c b45a e3ac 2426 ce2c
00000360: 5171 acac bd05 942c 6044 8eb3 3556 0cae
00000370: f271 952c a25e 6fb6 0031 cd33 d70a 8a2d
00000380: 5294 c2ac 2e6b 68ad 9d4a 112f 9269 6e31
00000390: e2b1 a0af 3fb5 6e30 3571 acac 9457 fdb6
000003a0: 262d 38ad e735 41b2 c710 6a32 c5fc 0dae
000003b0: 6700 5fad f4c4 052d 6933 0dad 6033 a12d
000003c0: daae 6d2c 8ae7 05ad 34e0 9633 794a 5f2e
000003d0: ddc2 ab34 27fa 162d 13e4 86ab 164e f3ac
000003e0: 9524 05ae b84e 6faa a734 2932 1903 53ad
000003f0: b996 512d 4280 c22e acf2 81b4 443e 812e
-2.2015627e-12 1.2183847e-11 -8.190763e-12 1.0742525e-11 -4.8647826e-12 3.6380443e-12 -1.485869e-11 1.136722e-08
-2.5473137e-10 5.426928e-11 -1.1852053e-10 -1.5261249e-11 -3.9184597e-11 1.651818e-11 3.735411e-11 1.5527538e-08
1.2282872e-16 5.4215193e-10 4.569851e-15 -4.8045843e-09 -1.14308745e-11 1.3677761e-11 -3.18158e-11 -8.302792e-12
-1.0411206e-12 -4.329866e-12 2.2403104e-11 -2.2466345e-11 -1.5279595e-11 -5.2475806e-12 -1.3073609e-12 3.6421495e-12
-1.7927416e-11 -7.696493e-12 6.1754915e-12 -1.6375347e-11 -1.0528897e-07 -3.082197e-11 1.3632183e-11 -8.682274e-09
3.6265733e-13 2.2772075e-12 1.6201476e-09 -9.43618e-12 -2.883357e-11 -1.2414906e-11 -4.825178e-12 -1.7699647e-11
2.1875522e-11 -1.6405137e-12 -1.29612284e-11 5.869e-12 6.3363095e-12 1.0708224e-11 -9.946603e-12 -1.9327862e-12
-2.342706e-12 3.3380756e-11 -1.7288723e-11 4.963011e-12 5.4687465e-12 -1.0902347e-11 -5.599182e-12 4.1943386e-11
7.4560835e-12 6.48573e-12 -5.143796e-08 1.6050826e-08 -5.023797e-11 4.557186e-11 -3.17924e-07 -1.4751823e-11
3.3482164e-10 3.4918012e-12 5.6239957e-11 -1.4846088e-11 1.8927603e-11 5.3220406e-12 4.6578068e-11 -2.9749835e-11
3.3839103e-12 2.8950085e-11 -3.3169172e-11 6.3249796e-12 -1.97251e-11 2.4484254e-12 -1.5915842e-10 3.5517773e-11
-1.4129635e-07 4.868221e-06 -1.3136576e-11 -1.3410927e-11 -6.8815176e-11 2.623594e-10 -6.2891456e-11 3.397113e-11
7.6211544e-11 2.8655626e-11 -2.475068e-11 -4.4255415e-12 -1.9548025e-11 5.165344e-12 1.156641e-11 9.634445e-12
-1.6123219e-11 -7.220265e-08 -4.6874653e-12 -1.39808685e-11 8.431167e-12 -2.0128873e-11 -1.066581e-11 -2.7839588e-12
9.512443e-12 -2.2171374e-11 -2.1091948e-12 2.683927e-12 -3.7481903e-11 -5.7237444e-12 -3.0961726e-12 -7.8815635e-12
2.1692938e-12 -4.651963e-12 7.973033e-06 1.0422943e-06 8.793068e-12 1.0025888e-11 1.3035643e-11 1.4666601e-11
1.0881606e-11 1.5517799e-11 1.3863465e-12 -3.7723362e-06 5.2873825e-12 -7.885365e-10 1.10801326e-10 2.5429044e-11
5.3015283e-12 -5.6798025e-12 4.927668e-12 5.187448e-12 -1.4202741e-12 -1.2455712e-11 -5.2239667e-12 -9.392319e-12
-1.768092e-11 3.6128992e-11 -2.8917695e-11 -1.720502e-11 -8.811066e-12 -1.0926529e-11 -1.151523e-11 -5.837294e-12
3.4243784e-12 -7.0400625e-12 2.8776238e-11 -2.1882622e-12 1.2423581e-09 6.203928e-08 -4.843378e-08 -5.2481947e-10
-5.7749597e-11 4.163583e-11 5.4148117e-11 1.2798081e-07 2.9958706e-11 3.5057344e-13 -4.1983043e-07 -8.899081e-09
-5.1180494e-11 -1.1811929e-11 9.736631e-12 -5.7915946e-11 -3.7242535e-12 -1.8675773e-11 -8.052467e-12 5.8616615e-13
-2.0581556e-11 1.5237928e-09 9.185469e-12 2.1151182e-11 1.3483024e-11 2.0261062e-11 1.4420188e-11 -6.853162e-13
8.0855895e-12 -8.849607e-12 1.0365875e-09 -2.005405e-10 -9.495255e-08 -9.467683e-09 -1.5600497e-11 7.312686e-12
2.87333e-11 -2.7148991e-11 1.4235724e-11 7.403435e-12 5.7158813e-12 7.453664e-11 -3.8412887e-07 2.3833858e-11
-7.3383877e-13 -7.968483e-12 1.5401217e-11 4.4727846e-11 2.0413083e-11 -9.333966e-12 1.6131993e-11 8.348371e-12
1.5193177e-12 -1.9071673e-11 -1.8791625e-11 1.2438197e-11 -5.2820144e-12 2.7196715e-12 -6.461798e-12 5.8591066e-12
-4.9011147e-12 4.20705e-12 -6.6248276e-08 -3.1908882e-11 4.247485e-12 -3.5668859e-06 9.5549694e-08 1.5693597e-11
-5.5302785e-12 -1.3211472e-11 1.3214181e-10 3.4693568e-09 -2.9230224e-10 8.684146e-10 -4.9011025e-12 -7.550183e-06
-1.0469214e-11 -1.12463345e-08 1.3624407e-08 -3.2284193e-11 -1.2676172e-11 7.603907e-12 -8.026337e-12 1.8326396e-11
3.3776788e-12 -7.611587e-12 7.0257016e-08 5.0770475e-11 3.1993014e-07 8.582058e-12 -9.584576e-13 -6.9151447e-12
-3.027319e-11 -2.1254775e-13 9.8490665e-09 -1.1994649e-11 1.1913742e-11 8.844882e-11 -2.420469e-07 5.8773014e-11
