D/pth/S_cnn.pth (torch, 508317 bytes, 75 tensors)

weight f4 [8, 1, 5]
000000 ba 80 d9 3c e2 4b 8d 3c 4a 22 3e bc 39 b6 d5 bc
       0.02655064 0.017248098 -0.011604855 -0.026087867
000010 a3 18 b7 bc 32 9d 9a 1e cc 4b 31 9e e2 69 da 9e
       -0.022350615 1.6370399e-20 -9.3859764e-21 -2.312544e-20
000020 8b 8c c7 9e d5 15 88 9c 7a a8 89 3a 2a e0 27 bb
       -2.1128072e-20 -9.005369e-22 0.001050248 -0.002561579
000030 73 ff 94 bb 16 30 98 bb 2a 80 94 bb 2c 62 fb 3d
       -0.0045470535 -0.004644404 -0.00453188 0.12274584
000040 dd c3 a8 3d 8f 00 8c bb e3 2f 05 be 5a 3f cb bd
       0.08240483 -0.0042725275 -0.13006549 -0.09924193
000050 22 c5 b3 bc c3 c6 2f 3a d5 7d 00 3c fe ca fd 3c
       -0.021944586 0.0006705338 0.007842501 0.030980583
000060 01 88 91 3c 35 0f 87 18 a6 8e 1a 18 3a ec 9c 97
       0.017765047 3.4912037e-24 1.9976053e-24 -1.0140896e-24
000070 de c8 c5 97 25 62 3a 98 c4 3b 6a bd 0d ac 1c 3d
       -1.2781533e-24 -2.4089487e-24 -0.057185903 0.038250018
000080 46 23 26 be 80 81 89 be f6 dd bd 3e 30 00 00 00
       -0.16224393 -0.26856613 0.37083405 6.7e-44
000090 b4 00 00 80 08 00 00 80 a5 00 00 00 79 00 00 00
       -2.52e-43 -1.1e-44 2.31e-43 1.7e-43

bias f4 [8]
000000 50 a4 f1 37 3c 66 8f 9a 6b de d3 b4 82 aa 41 ba
       2.8805953e-05 -5.930858e-23 -3.9463643e-07 -0.00073877734
000010 1a 24 78 37 9a 41 45 94 8e e0 7a 3a cb 10 00 00
       1.4790357e-05 -9.958896e-27 0.00095702044 6.024e-42

weight f4 [8]
000000 53 0e 38 3d 58 ac 35 b3 28 bb 57 3b 43 ec 84 3e
       0.044935536 -4.2299092e-08 0.003291795 0.25961503
000010 d4 c3 e8 3c b8 64 69 ac 50 f9 12 3f 53 00 00 80
       0.02841369 -3.3167202e-12 0.5741167 -1.16e-43

bias f4 [8]
000000 1f d2 74 ba db f5 81 24 d8 86 48 bb 2f dc 23 bb
       -0.0009339172 5.636133e-17 -0.0030597951 -0.0025003066
000010 49 75 13 ba 31 e4 26 a3 28 9d 51 bb b1 d9 8e 2b
       -0.0005625082 -9.0471994e-18 -0.0031984542 1.0150128e-12

running_mean f4 [8]
000000 ab 9a f1 37 e8 6c 8f 9a 22 2d d6 b4 ff aa 41 ba
       2.8801462e-05 -5.931936e-23 -3.9893445e-07 -0.0007387846
000010 a6 4e 78 37 65 40 45 94 f2 de 7a 3a c7 10 00 00
       1.4800264e-05 -9.958658e-27 0.00095699646 6.019e-42

running_var f4 [8]
000000 ee c8 0c 28 04 00 00 00 1d 65 98 25 2a 24 37 2a
       7.815131e-15 6e-45 2.6436314e-16 1.6266212e-13
000010 6a a6 d3 27 04 00 00 00 bf f8 df 2a 04 00 00 00
       5.874469e-15 6e-45 3.978536e-13 6e-45

weight f4 [8, 8, 5]
000000 35 00 00 00 52 00 00 80 34 00 00 00 4e 00 00 00
       7.4e-44 -1.15e-43 7.3e-44 1.1e-43
000010 1e 00 00 80 4a 60 ed 35 5b 94 f5 29 ce ed c8 b3
       -4.2e-44 1.76859e-06 1.0905921e-13 -9.356482e-08
000020 d8 9e c5 b0 01 82 90 34 fa 73 3e 98 db ce c1 36
       -1.4378783e-09 2.691668e-07 -2.4615478e-24 5.7759294e-06
000030 c7 b8 a6 ad 3c 7c 02 a9 1a 68 95 21 53 00 00 80
       -1.8954073e-11 -2.8973555e-14 1.0124188e-18 -1.16e-43
000040 4a 00 00 00 29 00 00 00 04 00 00 80 0e 00 00 00
       1.04e-43 5.7e-44 -6e-45 2e-44
000050 d8 72 7f ab 18 ce ee b1 46 3e c5 1f f6 1e d1 a7
       -9.0753577e-13 -6.950142e-09 8.353577e-20 -5.804272e-15
000060 5b b1 d4 2e 0f 9d 11 b0 14 92 35 32 96 73 21 2f
       9.6721485e-11 -5.2973886e-10 1.0568801e-08 1.4683929e-10
000070 46 d7 dd 2a d3 40 9b 2f 4b 00 00 00 43 00 00 00
       3.9406862e-13 2.8240396e-10 1.05e-43 9.4e-44
000080 26 00 00 00 40 00 00 00 2a 00 00 80 1f a1 19 2b
       5.3e-44 9e-44 -5.9e-44 5.458012e-13
000090 01 80 fa b4 d7 60 89 aa ad 62 9c 28 73 3b 53 28
       -4.6659264e-07 -2.4403285e-13 1.7362273e-14 1.1725744e-14
0000a0 16 e5 5b 26 a5 37 34 27 07 c4 f0 25 c7 51 04 26
       7.629136e-16 2.5010183e-15 4.1766197e-16 4.590753e-16
0000b0 e1 82 0b 29 3b 0e 09 ad 57 de 11 b1 73 6a cd 32
       3.097772e-14 -7.790708e-12 -2.1226663e-09 2.3913548e-08
0000c0 c4 31 4c ac 41 98 a0 34 78 c3 01 30 24 e7 6c 30
       -2.901777e-12 2.9913102e-07 4.7207704e-10 8.618477e-10
0000d0 66 f5 22 31 a4 11 2d 26 77 54 bc 34 7e ff 5c 10
       2.3713596e-09 6.004534e-16 3.5079185e-07 4.3584174e-29
0000e0 a6 7f 62 11 df dc 31 12 da bd a5 11 c6 05 0c 92
       1.7867591e-28 5.6123597e-28 2.6149415e-28 -4.4183327e-28
0000f0 fe 4d e0 8f 29 fd ec 8f 6e 8e 30 90 84 96 1c 90
       -2.2118147e-29 -2.336891e-29 -3.4819604e-29 -3.0881528e-29
000100 ff 30 32 8f d0 3d 61 36 ce d7 30 35 aa 7e cf aa
       -8.785514e-30 3.3563592e-06 6.5879146e-07 -3.6858477e-13
000110 eb 06 be aa d7 75 09 b5 a2 3b 4e 92 0c c2 45 11
       -3.375558e-13 -5.1207957e-07 -6.507564e-28 1.5600355e-28
000120 84 ab 3c 92 6b cc 4c 13 7e 26 db 91 fb 64 40 33
       -5.953375e-28 2.5849206e-27 -3.457583e-28 4.4795325e-08
000130 ae af 0f 37 cc bf 12 b3 03 e9 96 34 f8 90 e4 b2
       8.564368e-06 -3.4167712e-08 2.8109216e-07 -2.6608618e-08
000140 05 00 00 80 fe 00 00 00 25 00 00 80 9a 00 00 00
       -7e-45 3.56e-43 -5.2e-44 2.16e-43
000150 97 00 00 00 de 27 bd 30 ff 94 61 32 cf db 09 ae
       2.12e-43 1.3762891e-09 1.31306015e-08 -3.1345423e-11
000160 80 42 ca 2b 92 4e fc b2 c6 40 85 ab 73 2d fa a7
       1.4371421e-12 -2.937239e-08 -9.468197e-13 -6.9438215e-15
000170 d2 84 4c 2e 83 5b 3b 2a 8e d4 61 31 4e 00 00 80
       4.6502198e-11 1.6640686e-13 3.2862633e-09 -1.1e-43
000180 6d 00 00 00 1f 00 00 00 76 01 00 80 99 01 00 00
       1.53e-43 4.3e-44 -5.24e-43 5.73e-43
000190 50 72 b1 2a d0 59 89 30 8c 8b c7 aa 00 27 0e 33
       3.1520836e-13 9.993588e-10 -3.544633e-13 3.309742e-08
0001a0 b6 dc 7c 2b 6a 22 b4 b6 e0 6d b7 aa be 8f f5 28
       8.983468e-13 -5.3684244e-06 -3.258357e-13 2.7262802e-14
0001b0 d3 51 ae 34 c3 80 10 2f ab 00 00 80 cd 00 00 80
       3.246956e-07 1.3142469e-10 -2.4e-43 -2.87e-43
0001c0 0d 00 00 00 4b 00 00 00 77 00 00 80 e8 85 db ad
       1.8e-44 1.05e-43 -1.67e-43 -2.4956884e-11
0001d0 60 bc f3 28 1c 69 07 2b 7c 3b a8 b6 1d 28 ca a8
       2.7060114e-14 4.8107503e-13 -5.013715e-06 -2.2443901e-14
0001e0 67 1f 67 2f 3f b3 f8 b2 e6 2c e2 b0 4c e2 bb 32
       2.1020484e-10 -2.8952511e-08 -1.6456425e-09 2.1872573e-08
0001f0 c8 e8 ce 2f 61 8c b0 b3 0b a8 40 ad 67 a6 3d 2a
       3.7636583e-10 -8.2211734e-08 -1.09512495e-11 1.6844305e-13
000200 34 46 c9 30 cb de b7 ab 63 82 73 b6 55 c2 29 37
       1.4644628e-09 -1.306477e-12 -3.6285717e-06 1.0118431e-05
000210 d4 37 4b b1 03 a2 bf 35 35 f9 56 34 46 2d 6a 36
       -2.9572123e-09 1.427776e-06 2.0020964e-07 3.489507e-06
000220 2b 38 0d b4 87 c4 69 30 88 5e 88 b3 60 78 26 b4
       -1.3152082e-07 8.504419e-10 -6.3501886e-08 -1.5503747e-07
000230 2b 46 bd af d0 f3 55 31 76 5b ff b5 dd 71 14 32
       -3.4428757e-10 3.113417e-09 -1.9025599e-06 8.640623e-09
000240 68 86 61 b3 05 be 13 2f 22 8b 57 2b 48 10 12 37
       -5.2509137e-08 1.343708e-10 7.657643e-13 8.706069e-06
000250 5c b9 99 35 39 6d 6f a9 44 46 5c 33 bc fd dc b2
       1.1453335e-06 -5.3163396e-14 5.1286648e-08 -2.5726756e-08
000260 f9 50 05 b0 35 02 fc b3 27 c2 36 b1 e4 0d be 2a
       -4.8500187e-10 -1.1735066e-07 -2.6594849e-09 3.3760419e-13
000270 11 93 37 b2 dc d6 d5 35 a8 3b 8a b3 bd bc c7 ad
       -1.0685441e-08 1.5932269e-06 -6.436977e-08 -2.2707497e-11
000280 f3 19 74 3b 69 0f 0e 3b 8d 05 fb bb 7e 98 87 bb
       0.0037246912 0.0021676666 -0.007660574 -0.0041380515
000290 38 bf b2 bb 2e f5 18 a2 69 ef c8 1e 4d b0 23 a1
       -0.005454924 -2.0729638e-18 2.1274841e-20 -5.545988e-19
0002a0 11 a2 5b 20 76 c8 84 a1 79 d7 e7 34 96 30 6a b4
       1.8603645e-19 -8.99773e-19 4.318388e-07 -2.1810624e-07
0002b0 1e 64 84 b4 db fb 43 b5 57 bd 44 b5 00 ef 29 b8
       -2.465976e-07 -7.300966e-07 -7.3291216e-07 -4.0515326e-05
0002c0 81 6b 98 b9 77 ce af b9 06 48 6e b9 84 43 a2 b8
       -0.00029071796 -0.0003353243 -0.0002272428 -7.737338e-05
0002d0 ab 13 2c 36 a6 10 ee 36 83 93 05 37 9d c1 eb 36
       2.5641446e-06 7.094891e-06 7.961763e-06 7.0260853e-06
0002e0 56 67 f7 35 bd bd 39 21 a7 4f 3b a1 a6 70 7f 21
       1.8433009e-06 6.2931555e-19 -6.3463483e-19 8.654645e-19
0002f0 20 44 42 a1 52 3a 12 a1 fb 33 dc 3b f1 9e a5 3c
       -6.581992e-19 -4.954391e-19 0.0067200637 0.02021739
000300 cd 26 72 3c 44 7a 55 3c f9 40 87 bc f7 e9 02 2b
       0.014779759 0.013029639 -0.016510474 4.650997e-13
000310 c3 c7 a4 29 1f 0b de 29 bf fb 02 2b 50 8a 2c 2b
       7.317716e-14 9.8607097e-14 4.6534646e-13 6.129862e-13
000320 d8 26 96 a0 36 59 cf a1 1f 69 c8 22 cf 07 a1 a0
       -2.5436693e-19 -1.405048e-18 5.432141e-18 -2.7279628e-19
000330 a1 e1 90 21 1a 01 45 2f 1c b0 20 2c a1 0a a0 2e
       9.817543e-19 1.7917437e-10 2.2835128e-12 7.277846e-11
000340 65 46 89 a8 58 3b bb 2e 71 5b ae 2d 9b 5c c3 ae
       -1.5240584e-14 8.514317e-11 1.9822118e-11 -8.8840234e-11
000350 5c f0 c8 30 b5 13 d2 b6 1d d4 0c b5 59 42 e3 24
       1.462023e-09 -6.260782e-06 -5.246273e-07 9.8557955e-17
000360 45 e2 99 a4 37 9b 53 25 46 be 90 a5 85 d9 9c 24
       -6.673649e-17 1.8353922e-16 -2.5108952e-16 6.802271e-17
000370 a5 65 b5 32 5c f5 bb 31 b0 30 90 b0 10 b0 3a 33
       2.1117396e-08 5.4703104e-09 -1.0491217e-09 4.3466628e-08
000380 86 7a a0 ab e5 c0 13 2a 53 b5 f8 2c 90 b6 39 b5
       -1.1402691e-12 1.3123147e-13 7.068715e-12 -6.9183534e-07
000390 7c 49 f2 2b 6b 36 90 2e d1 46 06 25 e0 b6 ec 24
       1.721553e-12 6.5580284e-11 1.1646641e-16 1.0265849e-16
0003a0 88 a3 2c a5 1c 79 c4 a3 fe 51 c8 a4 97 65 28 ae
       -1.4974028e-16 -2.1301654e-17 -8.6875074e-17 -3.8289007e-11
0003b0 00 e1 1c 2a fe b2 68 2c 81 ed 69 29 cc 06 a7 31
       1.3933646e-13 3.3068544e-12 5.1942395e-14 4.8611124e-09
0003c0 c6 19 4e bc 1d 0e 13 bc e6 d4 3f 3c 38 f1 7c 3c
       -0.012579387 -0.008975533 0.011708474 0.01543837
0003d0 6f a7 20 3c 2b 90 7f a3 fa 91 14 a4 06 6b 18 a4
       0.009805544 -1.38541065e-17 -3.221603e-17 -3.30504e-17
0003e0 f2 b0 03 a4 23 da 49 23 22 92 b9 3a e5 7f 95 ba
       -2.8555975e-17 1.0942424e-17 0.0014157931 -0.0011405913
0003f0 fe 67 33 bb e9 f7 7e bb 3f fb 6b bb 45 04 5e bd
       -0.0027375217 -0.003890509 -0.0036007909 -0.05420329

bias f4 [8]
000000 00 00 00 00 3f e4 54 0f 02 00 00 00 4c e4 67 2c
       0.0 1.04963656e-29 3e-45 3.2953805e-12
000010 a7 a9 dc b7 74 9c 03 20 fc fc 04 3c 01 00 00 00
       -2.6305044e-05 1.1147898e-19 0.008116957 1e-45

weight f4 [8]
000000 c5 e4 aa 10 00 25 85 28 df 00 00 80 9a af 62 b5
       6.740565e-29 1.4782012e-14 -3.12e-43 -8.4447095e-07
000010 c2 10 33 3e 0f 1f 87 29 b8 00 2c 3f 4d 00 00 00
       0.17486861 6.000592e-14 0.67188597 1.08e-43

bias f4 [8]
000000 ea 0a 60 85 69 b1 f5 1f 42 2f 02 80 80 1b 01 34
       -1.0534434e-35 1.04055037e-19 -2.00624e-40 1.2024066e-07
000010 d7 cc 13 ba 02 08 a1 32 b9 d1 44 3b 5e bc 3d 80
       -0.00056381285 1.8746508e-08 0.003003223 -5.669539e-39

running_mean f4 [8]
000000 7a 46 42 af f7 d1 3e ad 49 5f a5 aa c9 22 aa af
       -1.7669236e-10 -1.0846871e-11 -2.9376005e-13 -3.0947536e-10
000010 3b d4 e5 b7 71 ce 63 2f 98 0c 05 3c b3 ee bb 2e
       -2.7397755e-05 2.0718872e-10 0.008120678 8.546177e-11

running_var f4 [8]
000000 f7 c6 a7 0d 19 6b 8f 09 f9 64 84 0b 89 f3 c6 17
       1.0340069e-30 3.4526712e-33 5.099648e-32 1.2856927e-24
000010 09 c2 df 26 69 5d 1f 0e fb 92 20 2a c3 89 4a 14
       1.5526327e-15 1.9643238e-30 1.4261849e-13 1.02255625e-26

weight f4 [16, 8, 5]
000000 ba e1 77 83 15 06 b4 03 d1 0b b5 03 b1 09 15 83
       -7.2845898e-37 1.05808455e-36 1.0640937e-36 -4.379829e-37
000010 2b 61 36 03 bf 81 21 1f 17 67 26 1f 6a 96 1d 1f
       5.3596536e-37 3.42004e-20 3.523714e-20 3.3370463e-20
000020 09 7c 2b 1f 7b 3e 0a 1f a5 20 fd 81 5e 0b e7 81
       3.6313258e-20 2.927432e-20 -9.2984365e-38 -8.487231e-38
000030 86 f8 d2 00 b6 c6 21 00 88 18 52 81 c1 f7 32 b5
       1.9374608e-38 3.101855e-39 -3.858851e-38 -6.6670697e-07
000040 fb c3 28 b5 97 31 2c b5 7d d2 2e b5 ac 13 23 b5
       -6.2870066e-07 -6.4147156e-07 -6.512635e-07 -6.075086e-07
000050 b6 35 e5 bc 81 26 68 3c ee 9a af 3b ad 37 33 bc
       -0.027979713 0.014169336 0.005359045 -0.010938567
000060 04 00 cf bc 2d 6d 9e 32 46 6b 74 31 e7 f6 9d 32
       -0.025268562 1.8443268e-08 3.556765e-09 1.8389484e-08
000070 e2 01 b7 32 92 33 d0 31 c1 e9 86 3d 10 6a e7 bd
       2.130486e-08 6.0594596e-09 0.06587554 -0.11299527
000080 3d 96 90 bd 62 68 00 3e 0c 98 a8 3c 34 c3 2a 80
       -0.07059906 0.12539819 0.020580314 -3.927117e-39
000090 8c f6 9c 82 de 02 ad 82 59 15 94 82 7c 2a 9f 82
       -2.306365e-37 -2.542171e-37 -2.1758898e-37 -2.3387335e-37
0000a0 39 01 00 80 8e 00 00 80 0c 00 00 80 a9 00 00 00
       -4.39e-43 -1.99e-43 -1.7e-44 2.37e-43
0000b0 30 00 00 00 4d 01 00 00 69 02 00 00 cd 00 00 00
       6.7e-44 4.67e-43 8.65e-43 2.87e-43
0000c0 90 01 00 80 a9 00 00 80 36 01 00 00 ad 00 00 80
       -5.6e-43 -2.37e-43 4.34e-43 -2.42e-43
0000d0 3f 01 00 80 30 00 00 00 ad 00 00 80 ed c7 d3 2e
       -4.47e-43 6.7e-44 -2.42e-43 9.630683e-11
0000e0 89 b1 dd aa 32 bf 3a 36 0f a0 f5 30 d6 75 12 29
       -3.9380676e-13 2.782745e-06 1.7871588e-09 3.252072e-14
0000f0 4c 01 00 00 bf 00 00 00 bf 00 00 00 81 00 00 80
       4.65e-43 2.68e-43 2.68e-43 -1.81e-43
000100 4a 00 00 80 d8 8e fb 01 27 04 00 80 d1 02 00 00
       -1.04e-43 9.240781e-38 -1.49e-42 1.01e-42
000110 34 00 00 00 d1 00 00 00 cf 00 00 80 12 01 00 80
       7.3e-44 2.93e-43 -2.9e-43 -3.84e-43
000120 0d 00 00 00 8f 00 00 80 4b 00 00 80 dc 00 00 00
       1.8e-44 -2e-43 -1.05e-43 3.08e-43
000130 51 00 00 80 a9 00 00 80 15 01 00 00 cf 00 00 80
       -1.14e-43 -2.37e-43 3.88e-43 -2.9e-43
000140 69 cf dc 02 4f ce 38 02 41 73 d6 82 bb c9 18 02
       3.2445142e-37 1.3577393e-37 -3.1510626e-37 1.122509e-37
000150 45 cd e8 02 e4 31 09 1f 76 d6 02 1f 58 98 1d 1f
       3.4207155e-37 2.9052147e-20 2.770597e-20 3.337206e-20
000160 33 d9 2a 1f c4 48 17 1f 88 a8 d9 02 4e 88 d5 02
       3.6178563e-20 3.2035684e-20 3.1982016e-37 3.1375772e-37
000170 3e 91 f2 02 3d 5e 04 03 5b a7 c9 02 0d d3 ba 34
       3.564207e-37 3.8899494e-37 2.9630353e-37 3.479876e-07
000180 0b 72 d5 34 c1 72 d6 34 d1 44 ce 34 f6 ac ca 34
       3.975732e-07 3.99441e-07 3.842056e-07 3.7751278e-07
000190 b5 da 91 3a af ad b4 3a 24 58 ae 39 3d f2 85 38
       0.0011127802 0.0013784672 0.00033253536 6.3870546e-05
0001a0 4f f3 42 39 c7 db 40 2f 23 c5 7e b2 4c d9 12 b2
       0.00018591921 1.7540379e-10 -1.482957e-08 -8.547726e-09
0001b0 ab b3 93 b1 b7 65 9e b1 91 e2 9e 3d eb f6 2b bd
       -4.298689e-09 -4.609969e-09 0.07758058 -0.041983526
0001c0 6d 2e 46 3d 6d d0 52 3d 6e 52 46 bc 86 20 58 02
       0.04838412 0.0514683 -0.012104614 1.5878508e-37
0001d0 a1 2f bb 02 8f 7a 53 02 93 c3 82 02 76 62 2c 03
       2.7504518e-37 1.5537004e-37 1.9214037e-37 5.0659285e-37
0001e0 95 00 00 00 99 00 00 00 92 02 00 80 05 01 00 00
       2.09e-43 2.14e-43 -9.22e-43 3.66e-43
0001f0 31 01 00 80 8d 01 00 00 38 01 00 80 4e 00 00 80
       -4.27e-43 5.56e-43 -4.37e-43 -1.1e-43
000200 7c 03 00 00 db 01 00 00 b9 01 00 80 1e 01 00 00
       1.25e-42 6.66e-43 -6.18e-43 4.01e-43
000210 cf 00 00 00 3a 01 00 00 2e 01 00 80 21 e8 13 ab
       2.9e-43 4.4e-43 -4.23e-43 -5.2547035e-13
000220 b1 62 41 36 90 31 b5 b5 9d a8 01 b0 34 35 72 2e
       2.8816687e-06 -1.3499975e-06 -4.716954e-10 5.5071683e-11
000230 98 00 00 80 b3 00 00 80 aa 00 00 80 c3 00 00 00
       -2.13e-43 -2.51e-43 -2.38e-43 2.73e-43
000240 75 01 00 80 c7 00 00 00 29 bd 31 2d ee c4 04 00
       -5.23e-43 2.79e-43 1.0103287e-11 4.37987e-40
000250 a8 03 00 80 29 02 00 80 5b 00 00 00 a3 00 00 80
       -1.312e-42 -7.75e-43 1.28e-43 -2.28e-43
000260 a3 00 00 00 f4 00 00 00 74 00 00 80 04 01 00 80
       2.28e-43 3.42e-43 -1.63e-43 -3.64e-43
000270 43 01 00 80 d1 02 00 80 f6 01 00 80 8a 01 00 80
       -4.53e-43 -1.01e-42 -7.03e-43 -5.52e-43
000280 02 00 00 00 86 00 00 80 e7 00 00 80 30 00 00 00
       3e-45 -1.88e-43 -3.24e-43 6.7e-44
000290 0f 01 00 80 cf 01 00 00 bd 01 00 80 0a 01 00 00
       -3.8e-43 6.49e-43 -6.24e-43 3.73e-43
0002a0 2a 00 00 00 1e 00 00 80 4e 01 00 00 94 00 00 80
       5.9e-44 -4.2e-44 4.68e-43 -2.07e-43
0002b0 7d 00 00 80 1f 00 00 00 1e 01 00 00 3d ec ee ac
       -1.75e-43 4.3e-44 4.01e-43 -6.7905946e-12
0002c0 35 4f 82 b6 0f 77 12 34 5a 20 98 2f 72 ae 01 2f
       -3.883523e-06 1.3640623e-07 2.7671626e-10 1.1794457e-10
0002d0 b2 00 00 80 91 00 00 80 4e 00 00 00 25 00 00 00
       -2.5e-43 -2.03e-43 1.1e-43 5.2e-44
0002e0 35 00 00 00 9e 03 00 00 94 00 00 80 cd 00 00 80
       7.4e-44 1.298e-42 -2.07e-43 -2.87e-43
0002f0 1b 02 00 00 cf 00 00 00 5b 00 00 00 47 00 00 00
       7.55e-43 2.9e-43 1.28e-43 1e-43
000300 73 00 00 00 71 00 00 80 c6 00 00 80 6f 00 00 00
       1.61e-43 -1.58e-43 -2.77e-43 1.56e-43
000310 34 01 00 80 40 00 00 80 cb 00 00 00 20 01 00 00
       -4.32e-43 -9e-44 2.84e-43 4.04e-43
000320 66 0a e1 01 b6 b9 a6 03 92 cf 9a 82 0c 85 da 02
       8.266687e-38 9.79924e-37 -2.2747406e-37 3.2108586e-37
000330 c6 0b 28 02 fa fd c6 1e 07 01 ac 1e 9a 8e f9 1e
       1.234607e-37 2.1069108e-20 1.8211633e-20 2.6422879e-20
000340 e4 20 02 1f 79 f2 da 1e 5e 6d 42 81 d6 3d 0d 80
       2.7555777e-20 2.3181932e-20 -3.571064e-38 -1.216044e-39
000350 71 4c 66 81 56 a4 0a 81 14 04 7a 80 5b 93 6d 35
       -4.2299172e-38 -2.5464502e-38 -1.1205393e-38 8.850381e-07
000360 a1 e8 7f 35 cc a2 79 35 a0 3e 67 35 e1 39 6e 35
       9.533342e-07 9.299663e-07 8.614534e-07 8.8746134e-07
000370 e6 d1 40 3b 34 df b4 39 5d 6c 03 39 a9 d1 95 39
       0.0029421984 0.00034498575 0.00012533502 0.00028575704
000380 a8 e3 8e ba 52 0a 3a 31 b9 32 29 32 2c 3d 7c 32
       -0.0010901587 2.7072429e-09 9.848628e-09 1.4682239e-08
000390 f3 36 4c 32 ae 50 66 31 7a a1 43 bd 07 8a ae bc
       1.1886857e-08 3.3515266e-09 -0.047761418 -0.021306051
0003a0 6d 87 91 bd db b0 92 3a 27 eb 67 bd 8d 47 95 82
       -0.071059085 0.0011191623 -0.056620743 -2.193465e-37
0003b0 92 68 b2 81 4c 55 ae 82 04 7c 31 82 ae 39 97 82
       -6.5536924e-38 -2.561596e-37 -1.3039497e-37 -2.2220562e-37
0003c0 cf 62 b2 03 96 63 01 02 26 79 ad 83 fd 3b ad 83
       1.0484585e-36 9.506003e-38 -1.01958405e-36 -1.0181799e-36
0003d0 e5 7f 16 84 8c cf 2c 9f 1e a3 e4 1f 1a c3 ad 1e
       -1.7691142e-36 -3.6594095e-20 9.683161e-20 1.839778e-20
0003e0 0f da 9e 1e 3d 56 9f 1e 75 2e 13 01 62 c1 80 00
       1.6819088e-20 1.6870447e-20 2.7032967e-38 1.1824316e-38
0003f0 24 b2 e3 80 c0 24 cd 80 44 ca 67 80 81 3f 21 b5
       -2.0910562e-38 -1.883946e-38 -9.531615e-39 -6.0069584e-07

bias f4 [16]
000000 aa ee fd 37 06 9d 5f 34 24 f4 8e b8 93 5d 75 30
       3.0271087e-05 2.0825618e-07 -6.8165624e-05 8.926346e-10
000010 e5 20 ea 20 02 ef 80 b7 14 f3 3f 36 92 01 88 aa
       3.966291e-19 -1.5370086e-05 2.8602708e-06 -2.4159543e-13
000020 35 1d ef 33 f9 5a 83 b6 44 bb 1f 23 f6 c0 da b5
       1.11346175e-07 -3.914695e-06 8.659062e-18 -1.6298425e-06
000030 fb d7 30 32 a0 13 e8 33 4e 81 38 29 26 a4 b8 21
       1.0293657e-08 1.08069116e-07 4.096836e-14 1.2511775e-18

weight f4 [16]
000000 ee 9b 24 3f 98 0b c1 8f 76 f7 b9 3e 7c 5a d7 8e
       0.6430043 -1.9035735e-29 0.3632161 -5.3088725e-30
000010 24 ed ed 8d d3 14 e5 3e ea 25 1b 3f 81 4a ae 0c
       -1.4663342e-30 0.4474245 0.6060473 2.6853785e-31
000020 24 a0 29 3e 9e 74 a7 3e c0 ad f8 0c 6e cd 0c 3f
       0.16564995 0.3270616 3.8315022e-31 0.5500096
000030 ce 5c c6 3d 97 90 db 3e 65 9f 1b 30 b2 b8 03 8e
       0.0968567 0.4288375 5.6615185e-10 -1.6235924e-30

bias f4 [16]
000000 da b3 ac 39 81 6c a8 9d 98 e1 87 3b 69 ca b2 20
       0.00032940396 -4.458142e-21 0.004146766 3.0288317e-19
000010 aa 44 98 1e 96 29 59 3b 92 81 ca 3a d6 d9 d5 9d
       1.6122025e-20 0.003313636 0.0015449992 -5.6605868e-21
000020 fc fa b5 b9 18 fc 3a 3b b7 e6 6b 1d d0 60 e9 ba
       -0.00034710008 0.0028531607 3.1221268e-21 -0.0017805342
000030 56 8f 0d ba 6d d0 69 bb fd 50 95 1a 40 b6 82 a0
       -0.0005400082 -0.003567721 6.17558e-23 -2.214346e-19

running_mean f4 [16]
000000 f6 f9 f1 38 1a 9d 5f 34 67 77 9e 39 7c 6a 75 30
       0.000115383344 2.0825647e-07 0.0003022507 8.9281804e-10
000010 1d 9d fd aa 6c 0b 1e ba 8a b0 13 ba 35 51 eb aa
       -4.5050847e-13 -0.00060289237 -0.00056339114 -4.1800734e-13
000020 21 f4 18 38 ae 9d 0b 36 68 e9 38 27 07 85 ff b9
       3.6466987e-05 2.0804396e-06 2.566166e-15 -0.00048736503
000030 fb a5 8b 35 58 f6 3b 39 e8 4e f3 28 ca 6c 24 2b
       1.0404614e-06 0.0001792548 2.701264e-14 5.841548e-13

running_var f4 [16]
000000 ff ed 2a 2f b8 04 10 13 c3 f3 1c 2e b8 04 10 0b
       1.5545963e-10 1.8177682e-27 3.5686797e-11 2.773694e-32
000010 04 00 00 00 86 c3 55 2d 5f 83 d8 2e 32 04 80 00
       6e-45 1.2151063e-11 9.845879e-11 1.1756449e-38
000020 8e f4 e8 2a 09 2e a2 2d 22 00 00 00 96 08 94 2e
       4.1381173e-13 1.8437711e-11 4.8e-44 6.731786e-11
000030 cf fd 59 2c 2a 8b e5 2d 06 80 00 00 10 01 20 00
       3.0978447e-12 2.6096087e-11 4.5926e-41 2.939117e-39

weight f4 [32, 16, 5]
000000 74 a3 0e bd 9f c6 01 bd 03 7c c5 3c ec b8 a0 3d
       -0.03482385 -0.03168356 0.024106985 0.07847771
000010 1d c8 81 bd cc af 00 17 3c 02 fd 18 a9 db fd 19
       -0.06336997 4.1580917e-25 6.5401223e-24 2.6248307e-23
000020 e1 fd 16 19 76 85 27 98 7d e7 2d 3c 7f 30 85 bb
       7.806089e-24 -2.1651625e-24 0.010614273 -0.004064619
000030 7a d5 25 bd e7 05 36 3d d3 ad 3b 3c 00 0d ce 1d
       -0.04048679 0.044439223 0.011455017 5.4541188e-21
000040 8f aa c9 1d 7c ab ba 1d fa 53 ba 1d 60 c1 d7 1d
       5.338061e-21 4.94111e-21 4.932062e-21 5.710997e-21
000050 c3 fd dc 9a 23 a2 e9 9a ab db a6 9a 6e 78 ec 9a
       -9.139984e-23 -9.662849e-23 -6.9010884e-23 -9.780188e-23
000060 5d 92 e6 9a 83 4a be ba e3 02 03 bd ec ed 04 3d
       -9.536223e-23 -0.0014518056 -0.031985175 0.032453462
000070 12 0b dd 3b 14 54 8c 3c 6a 40 03 3d 29 fe 66 3d
       0.0067457044 0.017129935 0.032043852 0.05639473
000080 84 b9 8b bd 8e de 75 bd 72 21 16 3d 7f 44 a9 98
       -0.06822494 -0.060026698 0.03665299 -4.375464e-24
000090 b8 80 97 98 15 a5 93 98 94 8b a4 18 5c db a9 98
       -3.9162558e-24 -3.81653e-24 4.2533944e-24 -4.3906972e-24
0000a0 99 b6 5c 3a 9e 00 0a 39 a8 02 38 b8 55 ef f6 b8
       0.0008419543 0.00013160935 -4.3871492e-05 -0.00011774773
0000b0 95 5f 4f b7 42 3e d0 bc 09 88 05 3c bf f5 aa bc
       -1.2360416e-05 -0.025420312 0.008150109 -0.020869134
0000c0 85 5b 92 3c a9 64 5a bb cd 5b cb 19 bd fd c6 9a
       0.017865906 -0.0033324158 2.1026786e-23 -8.230082e-23
0000d0 ae 61 12 1a c9 34 2a 9b 83 11 22 9b 82 37 ec 3c
       3.0270997e-23 -1.4079126e-22 -1.3405984e-22 0.028835062
0000e0 4c 5d 8c bc 55 2e 6d ba 55 80 d9 bc 05 ee bf bc
       -0.017134331 -0.00090477365 -0.026550451 -0.023428926
0000f0 38 5b 19 3a f9 41 00 bc a8 b6 3b bc 3a 7b 3c 3c
       0.00058500795 -0.007828229 -0.011457123 0.011503989
000100 a1 95 ae 39 92 38 51 bb ec 94 cf bb 6b a6 98 bc
       0.00033299348 -0.0031924588 -0.0063348915 -0.018634042
000110 f7 40 85 3c a2 30 48 bd 9b fc dc 95 06 e5 4b 97
       0.01626633 -0.048874505 -8.9255834e-26 -6.5881906e-25
000120 a2 48 79 96 f6 f8 7e 96 f0 0f 7e 96 c2 b1 b1 1c
       -2.0136979e-25 -2.0596515e-25 -2.0522986e-25 1.1758827e-21
000130 11 61 cb 1c 7e 76 f1 9a 83 8d b9 1a 37 56 d1 1c
       1.3458504e-21 -9.98667e-23 7.674283e-23 1.3852746e-21
000140 56 76 35 bc 2f d8 92 3c 1c d8 86 bd 6f df 5e 3c
       -0.011075577 0.01792535 -0.06584188 0.013603075
000150 a4 89 f5 bc a7 28 1d 9a 90 d1 92 99 da c8 93 99
       -0.029972859 -3.2499678e-23 -1.5180688e-23 -1.5280567e-23
000160 a8 c3 14 9a 93 e9 27 9a a9 14 7c 3c 69 01 85 3c
       -3.0763733e-23 -3.472347e-23 0.015385785 0.016236024
000170 29 16 4b 3c d2 05 bc 3c 43 d3 0d bc 3a 66 17 9e
       0.01239542 0.022951994 -0.008656326 -8.015013e-21
000180 07 af 25 9d 00 81 b7 9d 7c 74 2b 9e 40 6c 39 9e
       -2.1928055e-21 -4.857308e-21 -9.076753e-21 -9.816204e-21
000190 d6 87 44 1b da 56 b6 9a f6 3b 1e 9b d0 c6 2d 1b
       1.6256631e-22 -7.541375e-23 -1.3088828e-22 1.4374464e-22
0001a0 f9 f1 21 1b 30 1e a7 bc c1 a9 f5 bc 06 ad 71 bc
       1.3395793e-22 -0.020400137 -0.029988172 -0.014750725
0001b0 2c b8 e0 bb a6 bb e0 3c c8 2c 3a bc 37 98 71 3c
       -0.0068578925 0.027433228 -0.011363216 0.0147457635
0001c0 f7 50 55 3d 2c a5 16 bd 67 61 06 bd 17 fd 4e 18
       0.052079167 -0.036778614 -0.032807734 2.6752654e-24
0001d0 22 51 1f 98 fe c0 2a 98 2b 07 5f 18 c3 2b cd 97
       -2.059123e-24 -2.2069421e-24 2.8825693e-24 -1.3258862e-24
0001e0 13 8c 1d ba 64 eb a9 b8 2f 33 b3 37 0f 8d ba 36
       -0.00060099474 -8.102393e-05 2.1362297e-05 5.5596533e-06
0001f0 86 21 ad b8 fd 81 af bc 8c 17 b5 3a d3 30 33 3c
       -8.255527e-05 -0.021424288 0.0013816222 0.010936934
000200 f3 b9 dc 3b 17 18 f1 39 e1 47 00 1a a8 79 a0 19
       0.006736034 0.0004598505 2.6527843e-23 1.6592749e-23
000210 2d 85 e9 19 4e e3 43 1a f9 88 dc 17 45 c4 05 bd
       2.4145425e-23 4.050867e-23 1.4251744e-24 -0.03265788
000220 85 16 83 3c 83 20 81 bb 22 1c 17 bd ec 3e d0 3c
       0.01600195 -0.0039406433 -0.036892064 0.025420628
000230 7d 53 0b bb c6 f6 91 3a d1 b2 4b ba 6b e9 3c ba
       -0.002125948 0.0011136166 -0.0007770481 -0.0007206413
000240 ac c6 47 39 af 7e a9 bc 99 82 ec 3c 98 49 e6 bc
       0.0001905213 -0.02069029 0.028870868 -0.028111264
000250 d1 5f e1 bb 83 1b 2f bd 94 e3 a7 15 51 7b 70 95
       -0.0068778773 -0.042750847 6.780982e-26 -4.8564894e-26
000260 f8 a5 04 96 40 80 cc 95 3e 96 96 96 39 0b 3c 1c
       -1.0715246e-25 -8.2597287e-26 -2.4328623e-25 6.2218487e-22
000270 7a fd cd 1c 71 66 3c 9b 5e b2 cf 9c 5d 17 fa 9b
       1.3631284e-21 -1.5584096e-22 -1.3744218e-21 -4.137413e-22
000280 27 ec 29 bd b3 5e f5 3c 26 f0 b1 3c 88 fc 82 bd
       -0.041484978 0.029952383 0.021720957 -0.06395823
000290 39 d8 57 bd 1c 5f c9 18 91 cd d2 18 39 c1 ff 18
       -0.05269644 5.205332e-24 5.4491297e-24 6.611106e-24
0002a0 ec f1 15 96 18 4b 32 18 49 10 a4 bc 33 f3 22 3b
       -1.2112461e-25 2.3043873e-24 -0.020027297 0.0024864196
0002b0 93 cf 58 3b cc 18 d6 bb 34 27 07 bc 6d f8 31 1e
       0.0033082708 -0.0065337177 -0.008249093 9.421675e-21
0002c0 ca 40 20 1e 68 8f b2 1d 2a 17 2b 1e a8 3e 32 1e
       8.4837275e-21 4.7264486e-21 9.057455e-21 9.4361985e-21
0002d0 7e 74 23 1a 69 26 20 9a cd c8 40 9a fc 7c 03 9a
       3.3801712e-23 -3.3118252e-23 -3.9866875e-23 -2.7191127e-23
0002e0 2b 38 4a 9a 2a cf 41 3c 34 d7 83 3b 60 9e 19 3b
       -4.1817993e-23 0.011829177 0.004023457 0.0023440346
0002f0 27 6b 80 bb b0 9d 55 bc f7 7a 41 ba 1a 30 6c bd
       -0.0039190236 -0.013038084 -0.0007380689 -0.05766306
000300 42 43 ca bc 46 e0 be 3c fd 7c 89 bc a2 20 35 98
       -0.024690274 0.023300301 -0.016783232 -2.3410177e-24
000310 ae 3b 26 98 13 c9 b6 97 d0 78 dd 98 86 2e af 17
       -2.1485128e-24 -1.1812233e-24 -5.724915e-24 1.1320854e-24
000320 b9 6d 1d 35 4a 39 84 b8 c4 1e 7e 38 a0 aa 42 38
       5.8646725e-07 -6.3049214e-05 6.058697e-05 4.641211e-05
000330 7a 85 1d b8 5d e6 3e 3c f7 c2 44 bb f3 9b f6 ba
       -3.7556027e-05 0.011651603 -0.0030023435 -0.0018814787
000340 3f ed 2a ba 91 91 de 3b e3 52 33 1a 96 2c 19 1a
       -0.0006520338 0.006792255 3.7083288e-23 3.1675675e-23
000350 d6 17 1a 19 6a d3 e8 19 1d 9e fb 19 fe 2d e1 bc
       7.966427e-24 2.4073627e-23 2.6016653e-23 -0.027487751
000360 b1 7e 57 bc 0c b6 0d ba c0 b9 17 3c a3 f5 a3 bc
       -0.013152764 -0.000540585 0.009260595 -0.02001459
000370 94 c4 60 ba ed 76 ee b8 18 ed 06 3b 00 2c 4b 3a
       -0.00085742143 -0.00011370876 0.0020588096 0.0007750392
000380 1f 77 94 b9 d6 f9 b2 bc 9a 65 4c bc 3a d0 6f 3a
       -0.00028317512 -0.021847647 -0.012475396 0.00091481546
000390 60 b2 25 bc 93 2e 5c bc 7b dc 84 13 ff f5 29 16
       -0.010113329 -0.0134388385 3.3538895e-27 1.3729334e-25
0003a0 3e 51 e3 95 44 3f 3b 16 ac 3e e5 95 1f 05 28 9d
       -9.181275e-26 1.5125703e-25 -9.259124e-26 -2.2237262e-21
0003b0 1d e0 ad 1c f9 8c db 9c e0 92 94 1d 40 c5 9c 1c
       1.1506112e-21 -1.4528645e-21 3.932714e-21 1.0374202e-21
0003c0 d5 c0 92 bc a1 24 98 bd 5c 31 01 bd 2e 5d 91 3d
       -0.017914215 -0.074288614 -0.031541213 0.07097851
0003d0 f3 8f 55 3c d5 8d 01 19 06 73 d3 18 9c a2 be 18
       0.013034808 6.6977864e-24 5.4658366e-24 4.9278042e-24
0003e0 1b 82 e9 17 b3 ae 20 18 63 8b 96 bb d1 95 89 bc
       1.5090115e-24 2.0767716e-24 -0.004594253 -0.01679507
0003f0 62 cf 4d 3c 03 7b 64 bc 93 be b7 bc ee 21 8d 1c
       0.012561651 -0.013945344 -0.02242974 9.339368e-22

bias f4 [32]
000000 8a 74 88 b6 48 26 4b b6 cb 37 0e b7 d6 4f ca 36
       -4.066683e-06 -3.027164e-06 -8.47685e-06 6.0293632e-06
000010 cf 36 06 34 44 ab 4d b7 b4 40 98 34 39 d2 d7 35
       1.2499662e-07 -1.2258828e-05 2.8359284e-07 1.6079931e-06
000020 75 4b 6a 33 18 99 4c 34 68 f4 33 30 9f 04 fd b1
       5.4551e-08 1.9054676e-07 6.5467143e-10 -7.3637945e-09
000030 6d 91 3c b7 00 cd b9 34 77 90 0d b6 4f 6b 3b b6
       -1.1239533e-05 3.4608092e-07 -2.1094727e-06 -2.7927633e-06
000040 f9 55 c1 35 ac 3a 70 b6 8a 7a 9f 34 6b 0d b3 35
       1.4404642e-06 -3.5796938e-06 2.9705217e-07 1.3340444e-06
000050 f2 aa 3f b6 a5 bb df 35 91 57 4c 31 f0 fa 28 36
       -2.8560721e-06 1.6669406e-06 2.9735683e-09 2.5180016e-06
000060 62 5e cb b5 48 83 b2 b5 20 0b 1a b6 64 80 0d 35
       -1.5152148e-06 -1.3300241e-06 -2.2954264e-06 5.2713426e-07
000070 9c 0b 27 ac b0 81 92 b3 8d 73 8a 31 e1 ab 47 35
       -2.3738572e-12 -6.822245e-08 4.029465e-09 7.4383394e-07

weight f4 [32]
000000 78 b1 e9 3e a5 ac bf 3e 48 52 5f 3e 05 16 a4 3e
       0.4564321 0.37436405 0.21808732 0.3204805
000010 24 b3 04 b6 bf 03 c4 3e 1c 94 1d b6 dd fb 02 3f
       -1.9773806e-06 0.38284108 -2.3481034e-06 0.5116556
000020 03 7a 5f 3e d1 d0 da 3e 59 35 5f 8e 6d a0 4c 8f
       0.21823888 0.4273744 -2.7512558e-30 -1.00888734e-29
000030 22 03 f1 3e b0 62 2b 3e 28 91 11 3f ef a9 34 33
       0.47072703 0.16736865 0.56862116 4.206407e-08
000040 a4 8e f1 3e eb 71 01 3f f4 cf 68 2c 19 13 05 3f
       0.4717914 0.5056445 3.308462e-12 0.51982266
000050 31 3c 9a 3e d6 35 83 3e 9f 26 f2 35 46 53 79 3e
       0.30124047 0.2562701 1.8041645e-06 0.24348173
000060 d3 fe a5 3e de 68 d6 3e cf 52 07 3f 48 fa 26 3e
       0.32420978 0.41876882 0.5286073 0.16306412
000070 f3 ac 14 0b b2 3e dd 3e f2 f2 98 3d 24 83 04 3f
       2.8633876e-32 0.43211895 0.07468213 0.51762605

bias f4 [32]
000000 0b cd 43 ba d2 6c 1e ba 6f fa 7c 3b 2f 0b 08 ba
       -0.00074692135 -0.0006043437 0.0038601418 -0.0005189655
000010 60 cc 52 b4 62 31 78 3b a4 dc df 35 9d f7 a4 ba
       -1.9632125e-07 0.0037871231 1.667901e-06 -0.0012586002
000020 10 7d 11 bc 1e 49 28 bc 75 38 0d 22 52 b9 bc a0
       -0.008879915 -0.010271339 1.9138951e-18 -3.1971074e-19
000030 2e 32 7f bb 2a fe 91 bb 8b ed 13 bc 9c 5d 2d ac
       -0.0038939822 -0.0044553475 -0.009028803 -2.4636742e-12
000040 62 06 7a bb ce 6b a4 bb 4c 98 2e a3 a0 93 82 bb
       -0.0038150777 -0.005017734 -9.464809e-18 -0.0039848834
000050 9e 6f 2a 3b a5 80 73 3b 24 18 96 b5 85 f3 8b 3b
       0.002600647 0.0037155536 -1.1182897e-06 0.004270973
000060 b9 d2 43 bb 15 a2 48 bb e6 e5 2a bb 9d 2c 19 ba
       -0.002988024 -0.0030614187 -0.0026076972 -0.0005843135
000070 2f 5c 8d 22 47 01 2e bb f8 f1 21 bb 48 03 d1 39
       3.831573e-18 -0.0026551054 -0.0024710875 0.0003986603

running_mean f4 [32]
000000 39 59 8c 38 2b bc b3 b5 88 e5 a3 b9 95 26 a1 b9
       6.692339e-05 -1.3391303e-06 -0.00031260797 -0.0003073706
000010 49 0a 1c 34 f2 c7 d5 b9 33 90 8d 34 1a 12 24 3a
       1.4532374e-07 -0.00040775497 2.6368215e-07 0.0006258801
000020 69 ff 75 39 94 08 db 35 60 f4 33 30 98 04 fd b1
       0.00023460168 1.6319268e-06 6.54671e-10 -7.3637914e-09
000030 ed 99 d7 b9 70 2b 8d 38 51 5b 2d 39 06 6a 3b b6
       -0.0004112268 6.731495e-05 0.00016532584 -2.7926885e-06
000040 06 1f bb 39 29 b7 cb b9 58 81 9f 34 bc 36 19 39
       0.00035690534 -0.00038855642 2.9710168e-07 0.00014611607
000050 45 57 b6 38 17 b4 cd b9 5c d2 e8 b1 12 d7 83 39
       8.6946915e-05 -0.00039234824 -6.7760038e-09 0.00025146507
000060 be dc 1d b9 da 92 29 ba 6b 84 91 39 fb a0 b2 b7
       -0.0001505492 -0.0006468721 0.00027755214 -2.1294216e-05
000070 97 0b 27 ac 38 e8 79 39 1b b3 fe 37 54 72 60 b9
       -2.373856e-12 0.00023832999 3.0362562e-05 -0.00021404895

running_var f4 [32]
000000 d0 d1 40 34 85 62 0c 33 56 ca c8 33 da 46 c7 33
       1.7957723e-07 3.2685893e-08 9.3500304e-08 9.2795474e-08
000010 ac 0a 2c 25 cf f8 09 34 0f ee c2 25 e7 dc 01 34
       1.4922238e-16 1.2849635e-07 3.381495e-16 1.2094425e-07
000020 52 be 11 32 a4 41 c2 32 3a 04 80 09 3a 04 80 0c
       8.483385e-09 2.2614422e-08 3.0818854e-33 1.9724066e-31
000030 ca 74 c7 33 45 6f 2e 32 21 c5 dc 33 ee ff 5f 1d
       9.2879034e-08 1.0153433e-08 1.0280406e-07 2.9646117e-21
000040 bc 08 1f 33 7a 1f 1b 33 42 d9 5a 1e d6 e5 3d 34
       3.7028016e-08 3.6117378e-08 1.1585752e-20 1.768561e-07
000050 35 64 5e 33 8f ac c9 33 f9 37 d1 25 46 81 aa 32
       5.177954e-08 9.39118e-08 3.629365e-16 1.9849391e-08
000060 14 28 55 33 17 49 fd 33 6b 41 86 34 9c ff e8 32
       4.9629378e-08 1.17945255e-07 2.5007043e-07 2.7124592e-08
000070 3a 04 80 02 1b ca 00 33 c1 3a 4a 30 aa 3e 3d 33
       1.8810336e-37 2.9986136e-08 7.3570666e-10 4.4061984e-08

weight f4 [64, 32, 5]
000000 46 a0 4c bb d8 1b 24 bd 5d cb 7e 3c 50 77 96 bc
       -0.003122346 -0.040065616 0.015551415 -0.01836744
000010 10 4a 71 3b 52 2c e0 3a 7f dd 5d bc 1b 92 5c 38
       0.0036817826 0.0017103052 -0.013541578 5.258816e-05
000020 b6 0e 46 bc 3d e1 0b 3c da 25 1f bc 9d 58 9c 3c
       -0.012088468 0.008537588 -0.009713614 0.019085223
000030 52 92 11 bd 00 71 6c 3c 2c eb e5 bc 37 d9 73 3a
       -0.035539933 0.014431238 -0.02806624 0.0009302082
000040 62 43 98 bc 18 2f 19 3c 1c b1 8c bc fb 08 61 3c
       -0.018586818 0.009349607 -0.017174296 0.013735051
000050 b0 35 cf 32 45 2c f1 b4 99 48 30 b4 47 04 bf b5
       2.4122386e-08 -4.4921958e-07 -1.6417688e-07 -1.4231854e-06
000060 54 9d b6 b4 61 a2 88 3c 2a 66 1c bc 83 f2 42 3c
       -3.4014613e-07 0.01667899 -0.009545842 0.01189864
000070 d6 60 26 bc 34 32 17 3b e9 2a 97 b3 4e 29 80 33
       -0.010154923 0.0023070695 -7.039291e-08 5.967978e-08
000080 88 d6 22 37 0e 75 f3 32 b2 26 ce b1 7b 79 3d ba
       9.705902e-06 2.8342154e-08 -5.999788e-09 -0.000722788
000090 92 d4 44 bc 5a 30 48 bd 21 7b 24 3d 1c 57 01 bd
       -0.012013571 -0.048874237 0.040156487 -0.031577215
0000a0 39 d3 2d 3b 9d ae c6 3a 1a 5f 72 3b 82 49 c0 39
       0.0026523604 0.001515824 0.0036982954 0.0003667586
0000b0 ba a3 96 ba 41 07 b3 bb 39 a1 5f 3b b1 a9 13 3c
       -0.0011492886 -0.005463511 0.0034123196 0.009012626
0000c0 c9 fd 21 ba ad a9 73 bc 2b d1 09 9b 91 21 0a 9b
       -0.00061794795 -0.014871997 -1.139996e-22 -1.1425938e-22
0000d0 b3 83 6b 9b c4 5d 0b 9b 81 78 03 9b 17 20 8f 1b
       -1.9481299e-22 -1.1528108e-22 -1.0875003e-22 2.3678103e-22
0000e0 41 69 15 9b 2e 4c 95 9b 25 c8 c0 9a 8b 05 67 1b
       -1.2359e-22 -2.4699212e-22 -7.973269e-23 1.9109663e-22
0000f0 e0 2b 34 3a 8f 31 0c 3b 77 5c dc 3c 05 80 0a bd
       0.0006872993 0.0021391844 0.02689956 -0.033813495
000100 2d 0e 4e bc 28 a2 97 3b a5 ad bd 3b 2a 9e 91 ba
       -0.012576622 0.004627485 0.0057885223 -0.0011109759
000110 62 65 b9 ba 9b 0e 3b 3b 4b 37 95 3a 52 9d 1f 3c
       -0.0014144594 0.002854264 0.0011384276 0.009742098
000120 71 6b 3c 3c c4 d1 88 bc 34 76 3f 3c 56 08 a7 26
       0.011500225 -0.016701587 0.011685897 1.1590212e-15
000130 3d b9 e7 a6 25 08 9a a5 9e bb e8 a5 7f 67 c3 a7
       -1.6079054e-15 -2.672026e-16 -4.037272e-16 -5.4235583e-15
000140 f6 87 ec 3b a9 92 6d 3b c5 fd 90 3b df 7b 37 bb
       0.0072183562 0.0036250746 0.004424783 -0.0027997417
000150 f8 78 93 3b 03 51 42 3d d8 d8 de 3b 54 3f 49 bc
       0.0045005046 0.04744054 0.006800752 -0.012283165
000160 33 09 89 bc bc 07 97 3c 12 da 64 a0 0a b7 ae 1f
       -0.01672802 0.018436305 -1.9384505e-19 7.399468e-20
000170 18 d0 c2 1e e6 b7 84 a0 87 f6 74 a0 c2 67 d2 bc
       2.0626615e-20 -2.2483364e-19 -2.0749173e-19 -0.025684241
000180 d0 5c 00 bd 55 52 87 3c e3 f2 f4 3c 20 95 0b bd
       -0.031338513 0.016518751 0.029900974 -0.034077764
000190 e0 55 b6 3c 90 26 25 bc d6 82 6b 3c 58 79 38 bc
       0.022257745 -0.010079995 0.014374455 -0.011259399
0001a0 66 9d 31 3c 37 ab 3f 3c fd 2d dd 3b 88 1b 56 3a
       0.010840749 0.011698536 0.006749867 0.00081675546
0001b0 ad 32 53 3c c7 dd 3d 3b fb 11 66 b4 b4 a6 59 b3
       0.0128905 0.00289713 -2.142696e-07 -5.0675865e-08
0001c0 e3 ef bc 33 e2 27 47 33 a8 ac cb 33 bb 72 99 bb
       8.798067e-08 4.636957e-08 9.48433e-08 -0.0046828664
0001d0 ab f8 7f 3b 17 cc 99 bc df 13 21 3c 98 2f 5d 3b
       0.003905813 -0.018774075 0.009831398 0.0033750292
0001e0 c1 bd b4 bb e9 fd 1a bc 73 64 fa bb fa 31 53 3c
       -0.0055157845 -0.009459951 -0.007641369 0.012890333
0001f0 91 18 2c bc b8 e7 6f 3b 2c 1d f3 bc 2c d2 b0 3c
       -0.010503904 0.003660662 -0.029676996 0.021584593
000200 46 f8 48 3c 1a 89 03 3c ee 7c f4 bb 87 ee 05 bd
       0.012266224 0.008028293 -0.007461182 -0.03269818
000210 0a 03 62 bc db be 2d 3c d0 06 b1 bc 54 d4 a5 3b
       -0.01379467 0.0106045855 -0.021609694 0.005060712
000220 38 2c 06 bc e3 01 95 3b 3e 13 bb bb b9 e8 62 ba
       -0.0081892535 0.004547344 -0.005709081 -0.0008655894
000230 0c 72 6a 1d 1e ec 69 1d 1a 9d 96 9c cb c0 56 9c
       3.1028603e-21 3.0959363e-21 -9.966777e-22 -7.105584e-22
000240 fe e7 0a 9c 8a ce 16 bc ca c7 78 3c 84 bb 58 bc
       -4.5960213e-22 -0.009204516 0.015184352 -0.013228301
000250 0e 0e f4 3b 8f 5e 5f 3c 9a 70 33 b9 e1 05 81 39
       0.0074479645 0.013633384 -0.00017112718 0.00024609177
000260 4c 27 30 3a 7f a8 9e ba bf 5f cd 38 49 5e 35 bc
       0.0006719723 -0.0012104659 9.792996e-05 -0.011069843
000270 63 01 18 3c 38 ab 76 bc d0 45 a2 3c c6 95 8a ba
       0.009277674 -0.01505547 0.01980868 -0.00105732
000280 9f 9a 8b 3b d3 fa dd 3a 78 a1 e6 3c ec 49 d1 3b
       0.0042603756 0.0016935713 0.028153166 0.006386986
000290 43 ad 9e 3c 9f 03 14 3b c6 6d 84 3b 30 86 ee 3b
       0.019369727 0.0022585166 0.0040414063 0.00727918
0002a0 22 c6 00 3a 2f 15 46 3c 38 bb 7f bb 00 b2 fb 3b
       0.00049123366 0.0120900115 -0.0039021503 0.0076811314
0002b0 fe 93 97 bc 9a 47 c9 3b ca ad b4 bc 19 9f 0a bb
       -0.018503185 0.006142569 -0.022055525 -0.0021151958
0002c0 ee e2 1a bb a4 58 74 3c 17 03 d2 bb 80 40 3d 3c
       -0.0023633796 0.014913712 -0.0064090597 0.0115510225
0002d0 a5 21 35 33 76 fa 91 32 2c 8e bd b4 ba 8a 3f 32
       4.2172946e-08 1.6994118e-08 -3.5307437e-07 1.1149206e-08
0002e0 2c b2 7a 34 53 d9 f9 3a b8 63 c5 bc 0f 77 00 bc
       2.3347883e-07 0.001906196 -0.024095401 -0.007840886
0002f0 1a f4 af bb 91 31 ff 3a b4 e5 58 b3 90 b9 6b b2
       -0.0053696753 0.0019469728 -5.0500333e-08 -1.3720992e-08
000300 b3 54 a6 b2 e5 f2 b2 b5 f0 8c a1 32 43 5b e9 bb
       -1.936346e-08 -1.3332725e-06 1.8806958e-08 -0.007121475
000310 50 81 c4 3b 72 50 53 3b ac 51 3b 3d 9c 2d 04 b9
       0.0059968606 0.0032243994 0.045732185 -0.00012605492
000320 52 cb e9 ba fa cf 75 bb 59 c3 9e 39 48 a0 b5 3b
       -0.0017837083 -0.0037507997 0.00030281654 0.0055427887
000330 05 f2 b3 bc db 85 91 bc 64 fd f1 bb 31 e6 58 bc
       -0.02196599 -0.017764023 -0.007384943 -0.013238476
000340 7f 91 11 bc 0a a1 ad bc 79 75 bd 9a c8 5d e0 19
       -0.008884787 -0.021194953 -7.8358355e-23 2.3198935e-23
000350 57 01 9d 1a a0 7c b6 1a 62 7b ee 1a d1 89 01 1b
       6.493584e-23 7.547478e-23 9.863383e-23 1.0715161e-22
000360 95 81 a1 1b 81 3d a6 1a ff d3 54 9a e9 8d 29 1b
       2.6718956e-22 6.8755356e-23 -4.401182e-23 1.4025206e-22
000370 93 74 b5 3b 5e d1 b0 bb b8 25 fa bb d8 a7 dc bc
       0.0055375784 -0.0053960523 -0.007633891 -0.026935503
000380 b6 ff ac 3b 60 88 b4 bb ac 89 84 bb dd af 9a bb
       0.0052795066 -0.005509421 -0.004044732 -0.0047206716
000390 d5 48 c7 bb 04 bc 50 bc 46 6b 27 bc 7a f6 9f bc
       -0.0060816803 -0.012740139 -0.010218447 -0.019526709
0003a0 6b f7 8e bc 39 df 09 bd ad c5 2f bd c9 9c ec 26
       -0.017451962 -0.033660147 -0.042913128 1.6418286e-15
0003b0 13 50 10 a7 08 07 3a 28 7b e5 ac 26 8f b9 07 26
       -2.0027423e-15 1.0326599e-14 1.1997098e-15 4.708901e-16
0003c0 ce f0 93 bc c0 fc 52 3c 2e fd 85 bc 95 b5 f0 bc
       -0.01805916 0.012877643 -0.016356077 -0.02938346
0003d0 9b d5 f1 bc db 08 cd bb 58 e2 03 bc 13 8b 23 bc
       -0.0295208 -0.006257159 -0.00804957 -0.009981888
0003e0 db 41 72 bc 74 aa 36 ba 3e 71 1a 20 92 f0 35 9d
       -0.014786209 -0.00069681485 1.3081776e-19 -2.4079522e-21
0003f0 22 ad c6 9e b4 b4 26 20 03 c5 51 1f f6 67 94 bb
       -2.1035671e-20 1.4120537e-19 4.4420436e-20 -0.0045289947

bias f4 [64]
000000 c0 49 16 b4 74 5b ee 33 fc 1b 04 36 73 13 37 b3
       -1.3996669e-07 1.1099374e-07 1.9685822e-06 -4.2625697e-08
000010 15 37 95 b7 c7 58 da b3 13 fe cf 37 2e 91 6d b3
       -1.7787834e-05 -1.01675646e-07 2.4794635e-05 -5.5312903e-08
000020 52 c9 ed b1 99 9e 0c b7 76 cb b0 b2 26 c7 23 37
       -6.9204953e-09 -8.381577e-06 -2.058162e-08 9.761925e-06
000030 02 e2 83 b4 0d e1 70 36 20 7d 15 b2 5a 8a 41 b6
       -2.4565094e-07 3.5893784e-06 -8.701392e-09 -2.8839772e-06
000040 98 2e 1d 33 1d 15 8f b6 65 87 45 36 8e 07 01 b3
       3.6596788e-08 -4.26419e-06 2.9434098e-06 -3.0042024e-08
000050 6c 4c a9 35 2a 40 8f b3 9e b3 ad b2 ae a8 19 b4
       1.2613723e-06 -6.670628e-08 -2.0221531e-08 -1.43106e-07
000060 2b b5 f5 31 c4 37 40 b7 45 86 f2 35 70 85 e0 34
       7.151035e-09 -1.1457076e-05 1.8069483e-06 4.182034e-07
000070 7a 43 0c b3 eb c1 87 b4 b5 57 86 30 08 19 4a 34
       -3.265766e-08 -2.5286803e-07 9.774711e-10 1.8821822e-07
000080 12 2f 95 33 45 47 20 b5 12 c6 0a b7 58 73 1d b2
       6.946915e-08 -5.9708356e-07 -8.271558e-06 -9.164829e-09
000090 19 70 18 30 4c 31 05 33 57 62 7c 31 25 0c a6 32
       5.545658e-10 3.101131e-08 3.6726726e-09 1.9330466e-08
0000a0 97 a6 0e 33 46 ba 24 32 2c 46 06 b5 20 68 30 b2
       3.3213464e-08 9.58841e-09 -5.0021004e-07 -1.0268224e-08
0000b0 0c b9 0b 32 70 de 0e 38 7e ab 8a 36 ac 70 70 b2
       8.13294e-09 3.40626e-05 4.132685e-06 -1.3995457e-08
0000c0 c8 92 01 35 60 e8 04 36 5e 4f f2 2d 50 24 84 35
       4.826984e-07 1.9804793e-06 2.754746e-11 9.845335e-07
0000d0 31 38 75 b2 cf ef 1b b4 3c 11 4d 36 82 cf d1 31
       -1.4273653e-08 -1.4522742e-07 3.0557412e-06 6.1062915e-09
0000e0 eb a3 a1 b5 fd c5 12 b3 ce dd c6 b6 c5 07 82 35
       -1.2043141e-06 -3.4173343e-08 -5.9266813e-06 9.688016e-07
0000f0 4d b6 2c b3 b7 68 aa 34 85 71 14 33 d2 45 b4 32
       -4.0212672e-08 3.1741158e-07 3.456218e-08 2.0986509e-08

weight f4 [64]
000000 a8 39 96 3e aa 3d 73 3e da fd 1d 3e 54 8c b4 3e
       0.29340863 0.23753992 0.15428868 0.35263312
000010 06 06 c8 3e dd 3d 0c 3f c7 cc 14 3f cf ee db 3e
       0.39067096 0.54781896 0.58124965 0.42955634
000020 76 f2 9f 3b 08 41 95 3d 1e 0d 0b 3f 22 4d d0 3e
       0.0048811985 0.07287794 0.5431689 0.40683848
000030 a7 a9 45 3c b1 c8 1f 3e 6c 43 0c 3f 57 9e b1 3e
       0.012064374 0.15603901 0.5479038 0.34691116
000040 c0 e7 8e 35 c9 55 a3 3e 08 30 2b 3e 5a de 03 3f
       1.0647273e-06 0.31901386 0.16717541 0.51511157
000050 0c 16 ee 3e 6e 4d 64 3e d3 81 be b5 a1 7f 20 3e
       0.46501195 0.22295162 -1.4193887e-06 0.15673687
000060 f7 95 90 3e 21 b6 06 3f 7a ca 99 2e ce d3 dc 3d
       0.28239414 0.52621657 6.9936015e-11 0.10782586
000070 98 79 9e 3e b8 07 bb 3e e3 26 9b 3e 4a 7d 1e 3f
       0.30952144 0.36529326 0.30303106 0.61909926
000080 dc 31 d2 3d 2f b5 f4 3e b2 af 66 3d 51 cc 49 3e
       0.10263416 0.47794482 0.0563199 0.19706847
000090 ce 2b a5 b7 4a f2 d4 3e bc 2b f8 34 82 96 fb 3d
       -1.9689931e-05 0.41591102 4.622542e-07 0.122845665
0000a0 13 59 1b 3e b3 fa ec 3e 66 4e 8b 3e c0 84 8e 3e
       0.15170698 0.46285018 0.2720825 0.27835655
0000b0 68 6b 03 3e 40 1c 20 3f 58 14 10 3e 1c 39 9a 3e
       0.12833941 0.62543106 0.1407026 0.30121696
0000c0 32 33 8a 3e 9f fc 73 3d 5b 15 97 b5 32 1d 02 3f
       0.26992184 0.05956709 -1.1256592e-06 0.508258
0000d0 ec 1c 8b 3d a7 29 0c 3e 7f 9e 48 3e a3 e9 aa 3d
       0.06792626 0.13687764 0.19591711 0.08345344
0000e0 b8 73 8b 0f 8f 05 3e 35 ed b4 f5 3e d5 6e 96 3e
       1.3751031e-29 7.0788604e-07 0.47989598 0.29381433
0000f0 35 22 38 3e 50 09 00 3f bf ac f2 38 c7 7c 39 3e
       0.17981799 0.5001421 0.00011571636 0.18114005

bias f4 [64]
000000 c2 69 7b b9 f2 f6 22 3a 22 d5 4d b7 f9 ec 32 ba
       -0.00023976623 0.0006216607 -1.2268576e-05 -0.0006825473
000010 3f 5f 1a 3a c9 2c ef 39 44 2e ce 38 be 46 ef b9
       0.00058888266 0.00045619 9.831463e-05 -0.0004563834
000020 eb c4 ab 38 e6 88 16 b9 1a 1c a4 ba a9 1b 15 38
       8.190594e-05 -0.00014356113 -0.0012520582 3.555013e-05
000030 35 fa a6 b5 ff b4 e0 b8 53 00 bd ba 87 58 31 3a
       -1.2440784e-06 -0.000107148655 -0.0014419652 0.0006765206
000040 c4 dd 03 b4 72 d1 55 ba e0 e3 be 38 3a 84 f4 b9
       -1.2281004e-07 -0.0008156515 9.102351e-05 -0.00046637823
000050 76 28 14 ba 33 68 8b 39 fe db 23 b4 cf 31 20 ba
       -0.0005651781 0.0002658978 -1.526059e-07 -0.00061109377
000060 0d 31 ef 37 e3 3d ae b8 7b 28 4e 2f c8 5c 59 b9
       2.8513861e-05 -8.308494e-05 1.8749972e-10 -0.00020729296
000070 73 fc 14 ba 77 79 de b9 a0 9f 7b b9 e2 74 e9 b9
       -0.000568337 -0.00042433638 -0.0002399669 -0.00044528308
000080 26 7a ad b9 da 75 94 b9 a1 30 18 b7 82 ff 8d 39
       -0.0003308814 -0.00028316566 -9.071228e-06 0.00027083984
000090 39 66 f8 a0 ca 9f df b8 77 87 01 b5 9b cd 4a ba
       -4.208048e-19 -0.00010663232 -4.825337e-07 -0.0007736326
0000a0 81 0d bd b9 5e f6 c2 b9 ad f4 79 38 9d a2 fc 39
       -0.0003605895 -0.0003718612 5.95941e-05 0.00048186342
0000b0 34 c7 1b b9 c9 1d aa b9 39 fc 85 39 89 d1 74 ba
       -0.00014856161 -0.00032447118 0.00025555657 -0.00093390845
0000c0 74 31 52 ba 21 26 68 39 c0 84 f8 33 74 b3 91 b8
       -0.00080182333 0.00022139448 1.1572547e-07 -6.9475645e-05
0000d0 5d e8 45 b9 b7 ed a1 39 a5 fe c5 b9 0b 5e af 37
       -0.00018873946 0.00030885424 -0.00037764493 2.0905418e-05
0000e0 f2 07 9b 1d 02 22 35 b2 eb 85 65 37 84 f0 9e 39
       4.1036374e-21 -1.0543319e-08 1.3680644e-05 0.00030315307
0000f0 c8 58 00 3a b5 af 0c b8 c3 27 1b a1 b2 7e 13 ba
       0.0004896042 -3.354224e-05 -5.2568667e-19 -0.0005626484

running_mean f4 [64]
000000 98 99 40 bb 53 d2 16 bb 31 ff 20 bb 87 9f 93 b9
       -0.0029388424 -0.0023013547 -0.0024566168 -0.00028156882
000010 11 72 a9 bb 25 94 15 bb 02 7c 55 bb e8 50 03 bc
       -0.0051710685 -0.0022823897 -0.0032575135 -0.008014895
000020 3f e6 0a b7 f2 b5 af b9 7c 80 bc ba 92 ac b4 bb
       -8.279049e-06 -0.0003351416 -0.0014381553 -0.005513736
000030 02 6b 99 b8 d3 37 dd ba 48 26 2a bc 97 51 46 3b
       -7.31554e-05 -0.0016877599 -0.0103851035 0.0030261034
000040 25 e6 64 b4 99 34 86 bb 02 d7 03 bb 7c 6c be bb
       -2.1317881e-07 -0.0040956256 -0.0020117168 -0.005811272
000050 88 c5 ec ba 07 d4 d5 b8 30 c0 de b4 a8 7d d0 ba
       -0.001806424 -0.00010196125 -4.1490557e-07 -0.0015906589
000060 43 4e 9f ba 69 21 8d bb e1 ad f2 35 36 05 91 ba
       -0.0012154061 -0.0043069613 1.808101e-06 -0.0011064175
000070 59 b3 11 bb 1b a8 f3 b9 17 2c 62 bb 19 82 3f bb
       -0.0022232144 -0.0004647382 -0.0034511143 -0.0029221831
000080 67 1d 47 b9 02 b4 58 bb b7 39 4f b9 10 2a ca ba
       -0.00018989072 -0.0033066277 -0.00019762559 -0.0015423913
000090 81 eb 18 30 54 91 82 bb 53 b6 04 35 09 27 b9 ba
       5.563195e-10 -0.0039846096 4.943915e-07 -0.0014126013
0000a0 03 6c a3 ba 03 98 95 bb e9 9d 75 ba 91 9c e5 ba
       -0.0012468103 -0.0045652403 -0.0009369539 -0.0017517974
0000b0 44 89 1b bb cb 25 0c bb f2 f5 b8 ba 11 aa e3 ba
       -0.002373294 -0.002138483 -0.0014111383 -0.0017369409
0000c0 b6 c5 3f bb c3 fc 6f ba b0 d1 13 35 74 d5 b2 bb
       -0.0029262132 -0.0009154791 5.5066903e-07 -0.0054575745
0000d0 cc e3 87 ba 8f bf 8c ba 93 8d a8 ba d4 d0 b3 b9
       -0.0010367571 -0.0010738241 -0.0012859575 -0.0003429713
0000e0 f0 a3 a1 b5 cc 8d 03 b3 ba 75 82 bb 92 da a7 ba
       -1.2043147e-06 -3.0629778e-08 -0.0039813193 -0.0012806228
0000f0 61 69 af ba 30 33 c3 ba dd 6f 14 33 96 de 10 bb
       -0.0013382846 -0.0014892574 3.4560674e-08 -0.0022105328

running_var f4 [64]
000000 86 13 d6 37 ab bb e2 36 f9 3b 71 37 f7 9d f6 37
       2.551988e-05 6.7571723e-06 1.4378683e-05 2.9399043e-05
000010 46 e3 a3 38 2b 35 e2 37 2a f3 5b 38 54 fd 2d 38
       7.814779e-05 2.6966058e-05 5.2440133e-05 4.1482344e-05
000020 5d d3 84 32 7d 31 a7 36 11 5b 53 38 f7 15 b4 38
       1.546294e-08 4.982749e-06 5.0391132e-05 8.58716e-05
000030 2c e1 ba 32 25 48 c7 37 f4 69 df 38 ef d3 b8 37
       2.1755646e-08 2.3756244e-05 0.00010653204 2.2033199e-05
000040 e9 5f 9f 29 78 40 12 38 49 ed 49 37 31 dd a9 38
       7.077656e-14 3.4869154e-05 1.2035781e-05 8.099748e-05
000050 24 ce 11 38 9a 10 83 37 59 32 bf 2a ff a8 4e 37
       3.4762677e-05 1.5624148e-05 3.396335e-13 1.2317904e-05
000060 1f 9c 9a 37 f4 42 78 38 d4 be 96 21 d3 e7 f5 36
       1.843093e-05 5.9190163e-05 1.0214907e-18 7.328557e-06
000070 86 2d f3 37 a1 c3 5a 38 ea d8 c5 37 50 b9 d4 38
       2.8989056e-05 5.2157444e-05 2.3585239e-05 0.00010143465
000080 2c 69 c2 36 9c a4 e7 37 bd 91 6f 35 47 5d 27 37
       5.793894e-06 2.7613998e-05 8.9246515e-07 9.9756935e-06
000090 95 08 80 09 15 81 6e 38 ff 47 17 2a 98 89 fc 36
       3.082295e-33 5.686384e-05 1.3436473e-13 7.5262033e-06
0000a0 02 54 16 37 76 a0 dd 37 15 0b b9 37 07 f1 01 38
       8.960256e-06 2.6419973e-05 2.2058879e-05 3.098047e-05
0000b0 14 1e 85 37 89 4c 23 38 4c 0d 97 37 b1 49 93 37
       1.5868842e-05 3.8933507e-05 1.8006795e-05 1.755808e-05
0000c0 7c d1 bb 37 e2 24 96 36 03 51 75 2a 2e 45 1d 38
       2.2389686e-05 4.474642e-06 2.1788478e-13 3.7496146e-05
0000d0 85 e7 2c 36 32 a8 e8 36 24 60 8f 37 2d 4f f9 35
       2.576476e-06 6.9337193e-06 1.7091697e-05 1.8574989e-06
0000e0 95 08 80 14 d2 be 06 2a dd d2 9a 38 40 dd 85 37
       1.2928082e-26 1.1967795e-13 7.3825686e-05 1.5957863e-05
0000f0 1b 0e 0f 37 78 d3 0d 38 95 08 80 0f 18 7b 42 37
       8.526748e-06 3.3813965e-05 1.262508e-29 1.1591961e-05
